data/gpt2-small/das_simple_train_ADJ_layer9.npy (npy, 3200 bytes, 1 tensors)

array f4 [768]
-0.014030561 0.029402934 0.018440776 0.015130784 -0.06879698 0.0069827195 0.00751039 -0.088482894
-0.048294444 0.0513543 0.056553163 0.024815273 -0.006679733 0.001725219 -0.07096376 -0.047021165
0.012052983 0.007265811 -0.034855273 0.011372745 0.054838195 -0.050959814 -0.07510384 0.01026446
0.019994535 0.00581526 -0.019245138 0.08539717 0.039528966 0.047008593 0.027769089 -0.01948012
0.0024015978 0.020861076 0.07174227 0.050532155 -0.013411155 0.079382524 -0.03658545 -0.048713423
0.016667645 -0.02590493 0.007987367 0.025646871 -0.02690176 -0.035820626 -0.01845834 -0.008719346
0.03540527 0.052979443 -0.010131549 -0.040178232 0.014525476 0.06756545 -0.0021232632 0.019604629
-0.02976273 0.030944906 0.021180075 0.01130761 0.0025243144 0.018901829 -0.008851161 -0.012104809
-0.08727915 -0.0045392024 -0.016914114 0.013257552 0.070873685 0.002383057 0.02697475 0.0041861944
-0.0032387418 -0.055026487 -0.013629939 -0.036680758 -0.044524107 0.019751396 -0.014311887 0.008012824
-0.015373252 -0.008208813 0.030834239 -0.026566697 -0.03148202 0.015461746 -0.02388815 -0.053877093
-0.02306311 -0.012461968 0.021121036 0.005484662 0.0002400577 -0.016235285 0.021920038 0.030349161
0.07629892 0.014464384 -0.013834968 -0.0046914164 0.0009885728 -0.055820018 0.02125626 0.01651305
0.0349762 -0.010437148 -0.037326127 0.0065312576 0.011935096 0.025816545 0.008467237 -0.027288828
-0.0026900023 0.032174908 0.07404041 -0.039682396 0.026402807 -0.08425034 0.01938147 0.008593616
-0.06924694 -0.0026700357 -0.076051116 0.037876084 -0.017146617 -0.023156874 0.010364918 -0.015967896
-0.013549495 -0.033489425 0.082074165 0.002982784 0.032340236 0.013761801 -0.03121997 0.031702705
-0.059031405 -0.005759442 0.028415466 0.037120085 0.07287963 0.011081089 -0.01172406 -0.007585589
-0.03237161 -0.041953057 0.0057949396 0.04735714 0.020216458 0.03983583 0.0033865804 -0.025874598
-0.0013857181 0.046814095 -0.0017207433 0.039425608 0.026552334 0.035706647 0.051798336 0.05400959
0.052630577 0.07254306 -0.060766473 0.05771547 0.02691678 0.008403951 -0.0034280252 -0.02522603
-0.036712594 -0.020533307 0.09104224 -0.0052545615 0.016086165 0.029151719 -0.009129481 0.054334357
-0.034063596 -0.036172047 0.03288809 -0.038278393 -0.030860275 0.009668386 0.003615763 -0.042802844
0.0046141795 -0.0045736516 -0.026993422 0.0038594902 0.011521674 -0.02570858 0.03316077 0.029274352
0.03834443 0.017491506 0.0059137233 0.054276153 -0.009842241 -0.021632902 0.015505593 0.018479541
0.045442034 0.01947343 0.030487103 0.033016652 -0.017554637 -0.019868793 -0.043016203 0.0118461875
-0.08322469 0.009766057 0.013746245 -0.009794574 -0.049486637 -0.03000021 0.016153278 -0.040623993
-0.008988875 0.022060633 0.018008063 0.008778591 -0.026576156 -0.04875724 -0.06550079 0.0051197913
-0.0037573073 0.0051379334 0.04491605 -0.052175526 0.042964235 0.047531895 -0.0061174715 0.059211288
0.004546719 -0.022979453 0.016367782 0.072052315 -0.0069780448 0.0120078 0.00014513358 0.08495207
-0.042356398 0.027833575 0.026241457 0.014544903 0.0015685 0.000825068 0.08235428 -0.0021344004
0.029284455 0.019631129 0.0063731577 0.012385517 0.019487008 -0.016073544 -0.03394769 0.0089552235
00000000: 70e0 65bc 6cde f03c 1c11 973c 1ce7 773c
00000010: 6ee5 8cbd 4ccf e43b b819 f63b 8536 b5bd
00000020: 65d0 45bd e358 523d 4aa4 673d 6649 cb3c
00000030: a9e1 dabb be20 e23a 7355 91bd 4499 40bd
00000040: e079 453c 0a16 ee3b 67c4 0ebd c054 3a3c
00000050: 049e 603d 3dbb 50bd 0bd0 99bd 442c 283c
00000060: 94cb a33c f08d be3b fba7 9dbc b6e4 ae3d
00000070: 20e9 213d 158c 403d 007c e33c c694 9fbc
00000080: 2064 1d3b d9e4 aa3c 9ced 923d cefa 4e3d
00000090: 76ba 5bbc 4e93 a23d a0da 15bd ba87 47bd
000000a0: 968a 883c 9336 d4bc 72dd 023c 6319 d23c
000000b0: 1461 dcbc a6b8 12bd f235 97bc 96db 0ebc
000000c0: 1e05 113d f900 593d ccfe 25bc ee91 24bd
000000d0: 43fc 6d3c c15f 8a3d 7226 0bbb e399 a03c
000000e0: f8d0 f3bc 2c80 fd3c d681 ad3c 8e43 393c
000000f0: f86e 253b 02d8 9a3c 7604 11bc 4053 46bc
00000100: 69bf b2bd 97bd 94bb 788f 8abc 3436 593c
00000110: 3926 913d 102d 1c3b 27fa dc3c 582c 893b
00000120: 1241 54bb 7463 61bd 1c50 5fbc 903e 16bd
00000130: e95e 36bd aecd a13c 687c 6abc 3848 033c
00000140: 18e0 7bbc 427e 06bc 1698 fc3c 67a2 d9bc
00000150: 4af3 00bd 4353 7d3c 15b1 c3bc 3aae 5cbd
00000160: d9ee bcbc 482d 4cbc 0606 ad3c aeb8 b33b
00000170: 00b8 7b39 dcff 84bc a791 b33c ce9e f83c
00000180: 9c42 9c3d 06fc 6c3c 10ac 62bc 74ba 99bb
00000190: 0093 813a 88a3 64bd 9c21 ae3c 6046 873c
000001a0: 3443 0f3d 9200 2bbc 48e3 18bd 2904 d63b
000001b0: 6c8b 433c 387d d33c 2bba 0a3c d28c dfbc
000001c0: c04a 30bb d6c9 033d 80a2 973d 028a 22bd
000001d0: b34a d83c 718b acbd e3c5 9e3c 3dcc 0c3c
000001e0: 57d1 8dbd c4fb 2ebb b0c0 9bbd f423 1b3d
000001f0: 1077 8cbc 7cb3 bdbc 9ed1 293c 1bcf 82bc
00000200: b3fe 5dbc 352c 09bd 8016 a83d d07a 433b
00000210: 3277 043d 2d79 613c 06c1 ffbc b2da 013d
00000220: eaca 71bd b4b9 bcbb 8dc7 e83c 3b0b 183d
00000230: ea41 953d 758d 353c 4616 40bc 8890 f8bb
00000240: 1898 04bd f8d6 2bbd 7ae3 bd3b 8ff9 413d
00000250: fc9c a53c e52a 233d 64f1 5d3b f7f6 d3bc
00000260: fca0 b5ba 23c0 3f3d 908a e1ba bf7c 213d
00000270: 4884 d93c 2241 123d 7e2a 543d 2939 5d3d
00000280: 2993 573d 7591 943d 44e6 78bd 0f67 6c3d
00000290: 9480 dc3c bab0 093c b8a8 60bb d2a6 cebc
000002a0: f25f 16bd 7735 a8bc 5b74 ba3d 752e acbb
000002b0: 22c7 833c 96cf ee3c d293 15bc b48d 5e3d
000002c0: 4586 0bbd 2429 14bd a9b5 063d cec9 1cbd
000002d0: b0ce fcbc 2668 1e3c 70f6 6c3b 0952 2fbd
000002e0: 8b32 973b 92de 95bb 4f21 ddbc 80ef 7c3b
000002f0: 67c5 3c3c cd9a d2bc 96d3 073d c4d0 ef3c
00000300: 0d0f 1d3d 594a 8f3c e8c7 c13b ac50 5e3d
00000310: 5a41 21bc 7c37 b1bc 2c0b 7e3c 6862 973c
00000320: 6d21 3a3d be86 9f3c 17c0 f93c 783c 073d
00000330: bece 8fbc e1c3 a2bc c231 30bd 8316 423c
00000340: b571 aabd d001 203c ee37 613c 6c79 20bc
00000350: 80b2 4abd 00c3 f5bc e153 843c 5865 26bd
00000360: 1346 13bc 80b8 b43c a585 933c 14d4 0f3c
00000370: 3db6 d9bc acb5 47bd 4725 86bd ecc3 a73b
00000380: 283d 76bb 1c5c a83b e4f9 373d 01b6 55bd
00000390: 44fb 2f3d ceb0 423d 1275 c8bb 8987 723d
000003a0: a5fc 943b 683f bcbc ba15 863c 2a90 933d
000003b0: 15a8 e4bb 5dbc 443c 002f 1839 5afb ad3d
000003c0: e77d 2dbd 3d03 e43c 53f8 d63c bf4d 6e3c
000003d0: 2096 cd3a 6049 583a 5ca9 a83d 4ce1 0bbb
000003e0: f4e5 ef3c 76d1 a03c ecd5 d03b a0ec 4a3c
000003f0: 38a3 9f3c aaac 83bc bc0c 0bbd eeb8 123c
