data/gpt2-small/das_simple_train_ADJ_layer6.npy (npy, 3200 bytes, 1 tensors)

array f4 [768]
0.02667445 0.016027242 0.017391996 0.04993901 -0.06411669 -0.015450989 -0.017625635 -0.047654074
-0.047650494 0.03475815 0.051794372 0.016268339 0.014091436 -0.0015627388 -0.011761878 -0.01625418
-0.007749783 0.01221092 -0.04454084 0.019246347 0.06847282 -0.017573506 -0.06005829 -0.016478268
0.037948065 0.004447948 -0.09364389 0.05648535 0.0073168203 -0.01610661 0.019558804 -0.011176737
-0.0035500452 0.051569317 0.069558166 0.0571954 -0.031473614 0.06403768 0.013006257 -0.01896604
-0.0019404998 -0.003813642 0.0043313215 0.019057412 -0.029074991 -0.04132259 -0.048628096 -0.050384413
0.027175963 0.033804007 -0.014563504 -0.032331403 0.010659153 0.06049812 -0.027582573 0.020751135
-0.012606229 0.04080469 0.025152514 0.039055176 -0.011980695 0.008912118 0.01791891 -0.023670373
0.0089677125 -0.014689526 0.029502252 0.033297848 0.05590716 0.013461013 0.010171639 0.015265525
-0.0048427163 -0.041582987 0.016157687 -0.04215675 -0.04623445 0.03842278 0.0076873153 0.0035375836
-0.008888168 -0.036352415 0.016411632 -0.0009559896 -0.018662661 0.04704601 -0.011487164 -0.017740976
-0.011663408 0.008854419 0.03427717 -0.016879816 -0.0031191371 0.0008507222 -0.007532386 0.03552607
0.023560602 -0.029819109 -0.009007718 0.029234538 0.034855418 -0.08421542 0.054195035 0.028950805
0.053471595 -0.038609598 -0.010152262 0.026534796 -0.0013058549 -0.019870285 -0.031314686 -0.018781882
-0.015842192 0.068183616 0.061273143 -0.03250725 0.058226123 -0.0879666 0.032641426 -0.027753824
-0.036320537 0.040017642 -0.05909481 0.028346539 0.007301923 0.0071503576 0.017640587 -0.06353018
-0.0026395451 -0.054364454 0.024352461 0.0026535285 0.030853936 0.03872533 -0.035063084 0.04529085
-0.07673849 0.01153774 0.014405122 0.037602775 0.06776031 -0.00716973 -0.028247071 -0.026906224
-0.03812703 -0.00033888966 -0.021665486 0.042210262 -0.002724431 0.027399315 -0.038589258 0.004146338
0.0038359147 0.023198886 0.029452851 0.013658607 0.030785788 -0.00075750635 0.092500135 0.021526044
0.007885218 0.06782489 -0.06994988 0.07090742 0.020572115 -0.00018368661 -0.001950385 -0.01568852
-0.0069055157 -0.007117942 0.08136303 0.020606553 -0.0009550685 0.030972337 -0.027864747 0.043482132
-0.051461495 -0.01191112 0.029547535 -0.019679064 -0.030708564 -0.00011549145 0.018000452 -0.044864118
-0.022566725 0.014375627 -0.015964225 -0.0017875135 0.0005305018 -0.003499169 0.03408564 0.020439632
0.021716759 0.035955254 0.030258104 0.057867702 -0.0039768033 -0.010118647 0.024769856 0.04036405
0.03258644 0.04310399 0.01619929 0.0441721 -0.023482036 -0.018121932 -0.061102908 -0.016974555
-0.0616126 0.0061459327 0.0032070372 -0.003544134 -0.051266525 -0.021082122 0.027488686 -0.031827047
0.015899483 0.041353405 0.00131285 0.013242202 0.0054521207 -0.023103181 -0.028246822 0.0027053393
-0.036608137 -0.016139543 0.060606413 -0.019009132 0.034942985 0.04127208 -0.005804987 0.04876355
-0.013483607 -0.029980868 -0.030392796 0.046716694 0.008292543 0.013870104 -0.01108868 0.061303448
-0.024841066 -0.0038039186 0.053111307 0.02462288 0.037058324 -0.008314535 0.06275795 -0.011729567
0.049458046 0.0037382038 0.0043802476 -0.013198735 0.03755176 -0.04781784 -0.049416598 -0.033259332
00000000: 6084 da3c 904b 833c a979 8e3c d98c 4c3d
00000010: 9c4f 83bd 2526 7dbc a363 90bc eb30 43bd
00000020: 2a2d 43bd 905e 0e3d 5626 543d 2e45 853c
00000030: c4df 663c d0d4 ccba e4b4 40bc 7c27 85bc
00000040: e4f1 fdbb 5010 483c 7570 36bd 84aa 9d3c
00000050: 7a3b 8c3d 50f6 8fbc aeff 75bd 6ffd 86bc
00000060: 6e6f 1b3d 18c0 913b 5ec8 bfbd 2f5d 673d
00000070: f0c1 ef3b 02f2 83bc c939 a03c a21e 37bc
00000080: e0a7 68bb 593a 533d 8374 8e3d b945 6a3d
00000090: 7aea 00bd 3026 833d 3218 553c ab5e 9bbc
000000a0: 5e58 feba 4cee 79bb c2ed 8d3b 4a1e 9c3c
000000b0: ad2e eebc e041 29bd 412e 47bd e35f 4ebd
000000c0: 20a0 de3c 1276 0a3d c39b 6ebc ef6d 04bd
000000d0: baa3 2e3c e0cc 773d d9f4 e1bc 49fe a93c
000000e0: 5b8a 4ebc d222 273d a50c ce3c 52f8 1f3d
000000f0: ad4a 44bc 2204 123c aeca 923c 5fe8 c1bc
00000100: 50ed 123c 56ac 70bc b5ae f13c 5363 083d
00000110: e8fe 643d 958b 5c3c f2a6 263c 411c 7a3c
00000120: a6af 9ebb ec52 2abd 205d 843c 8eac 2cbd
00000130: 5660 3dbd 3461 1d3d e0e5 fb3b ced6 673b
00000140: ae9f 11bc 45e6 14bd b071 863c 609b 7aba
00000150: 70e2 98bc 51b3 403d a834 3cbc 8655 91bc
00000160: e117 3fbc 2012 113c 3866 0c3d 8a47 8abc
00000170: 706a 4cbb 0003 5f3a 3cd2 f6bb c983 113d
00000180: 2a02 c13c 3447 f4bc 1c95 13bc 457d ef3c
00000190: 8ec4 0e3d 2279 acbd 9dfb 5d3d 3d2a ed3c
000001a0: 0805 5b3d 1925 1ebd ac55 26bc 805f d93c
000001b0: 3829 abba 02c7 a2bc d443 00bd 76dc 99bc
000001c0: 7cc7 81bc daa3 8b3d 8cf9 7a3d 5226 05bd
000001d0: 847e 6e3d d527 b4bd 04b3 053d fd5b e3bc
000001e0: d8c4 14bd 8ae9 233d 660d 72bd 0037 e83c
000001f0: f844 ef3b 8c4d ea3b fe82 903c 1c1c 82bd
00000200: 38fc 2cbb 43ad 5ebd d07e c73c d2e6 2d3b
00000210: 65c1 fc3c 749e 1e3d 4f9e 0fbd e682 393d
00000220: 1229 9dbd ca08 3d3c 7603 6c3c 5e05 1a3d
00000230: ebc5 8a3d 0ef0 eabb 6766 e7bc 716a dcbc
00000240: 172b 1cbd 00ad b1b9 d17b b1bc abe4 2c3d
00000250: 5e8c 32bb 8774 e03c c50f 1ebd 01de 873b
00000260: f863 7b3b 970b be3c 1b47 f13c 5ac8 5f3c
00000270: 7a32 fc3c 6493 46ba b670 bd3d 6357 b03c
00000280: 0031 013c c7e7 8a3d e241 8fbd e937 913d
00000290: da86 a83c 009c 40b9 10a4 ffba 3685 80bc
000002a0: aa47 e2bb a03d e9bb a9a1 a63d 13cf a83c
000002b0: 905d 7aba b3b9 fd3c 9c44 e4bc 521a 323d
000002c0: 4ac9 52bd dc26 43bc ac0d f23c fd35 a1bc
000002d0: 8790 fbbc 0034 f2b8 af75 933c 70c3 37bd
000002e0: dadd b8bc c087 6b3c 68c7 82bc 004b eaba
000002f0: 6011 0b3a 5052 65bb 629d 0b3d 0471 a73c
00000300: 58e7 b13c d145 133d d8df f73c af06 6d3d
00000310: d84f 82bb aec8 25bc 27ea ca3c c654 253d
00000320: 5c79 053d cf8d 303d 60b4 843c ceed 343d
00000330: 665d c0bc 7274 94bc 0b47 7abd 390e 8bbc
00000340: 7e5d 7cbd d263 c93b 282d 523b b444 68bb
00000350: d9fc 51bd 6ab4 acbc f42f e13c 145d 02bd
00000360: a23f 823c 3062 293d f013 ac3a d2f5 583c
00000370: b4a7 b23b e242 bdbc e165 e7bc 104c 313b
00000380: 6af2 15bd 1337 84bc 6e3e 783d 0ab9 9bbc
00000390: 6020 0f3d ea0c 293d c337 bebb 4abc 473d
000003a0: 59ea 5cbc 709a f5bc 50fa f8bc 015a 3f3d
000003b0: 72dd 073c 6f3f 633c 4bad 35bc 5319 7b3d
000003c0: 7e7f cbbc 2a4b 79bb 3e8b 593d ecb5 c93c
000003d0: 78ca 173d b039 08bc 3d87 803d 5f2d 40bc
000003e0: 8594 4a3d a7fc 743b 2e88 8f3b 823f 58bc
000003f0: e0cf 193d a4dc 43bd 0f69 4abd f03a 08bd
