data/gpt2-small/das_simple_train_ADJ_layer12.npy (npy, 3200 bytes, 1 tensors)

array f4 [768]
000000 15 73 10 3f 24 28 93 bc c0 00 28 bd 9e 8d 59 3c
       0.564256 -0.017963476 -0.04101634 0.013278393
000010 48 fc f1 ba 8e 2c 5d bc 3e b5 d7 3c 8f 1c 8f bc
       -0.0018462026 -0.013499392 0.02633154 -0.017469672
000020 06 2f 42 3c 6e 68 ba bb e4 32 12 bd bc ef 44 3b
       0.011852032 -0.0056887185 -0.035693064 0.003005012
000030 84 85 3c 3c e5 51 bb bc e1 f9 a0 3c b7 8f 6a 3c
       0.011506442 -0.022866199 0.019650402 0.014316491
000040 fa 13 e8 bc 9e da 15 bc b2 e0 02 bc 93 de 9d bc
       -0.028329838 -0.009146361 -0.007988142 -0.01927117
000050 b7 43 a5 3b 1f 30 aa bc 0f 23 bb 3c 46 e1 2a 3c
       0.0050434726 -0.020774899 0.022843866 0.010429686
000060 47 b1 50 bc 5f b3 bd 3c 7b 29 87 3c 4a 2c 0e 3c
       -0.012737579 0.02315682 0.016499272 0.0086775515
000070 86 67 e4 3c 0a f3 69 3c ce ec b7 bb c3 34 6d 3d
       0.027881395 0.014279136 -0.005612946 0.057911646
000080 17 29 6e bc 54 b0 54 3d 20 2c 5d 3c 08 1f 5f bd
       -0.014536164 0.051925972 0.01349929 -0.054472953
000090 5b 43 80 3c 9c 45 3f bd 98 48 90 3d 15 92 a1 bc
       0.015657118 -0.046697244 0.07045096 -0.019722978
0000a0 da d9 c3 3b 1e 47 bb bc 9d 83 17 bb 02 6e bf bc
       0.0059768977 -0.02286106 -0.002311922 -0.023367886
0000b0 ba c4 94 bc 08 90 b2 bc 77 d4 5d bc d4 99 6e 3c
       -0.018160213 -0.021797195 -0.013539425 0.014563043
0000c0 5e 1c 8c 3c 5c 9d 96 ba 0e 07 e1 3c 79 b2 b9 3c
       0.01710337 -0.0011490989 0.027469184 0.02266811
0000d0 67 ea d7 3c 26 95 cc 3c d4 bd 06 3b 10 3a 3b bc
       0.026356889 0.024973463 0.0020559924 -0.011427417
0000e0 fc f1 18 bc 37 72 9e 3c c9 d9 a0 3c 55 40 7e bb
       -0.009335037 0.019341571 0.019635098 -0.003879567
0000f0 f4 4a 0d bc 05 2f 03 3d dc cd 9b bc fc a1 dd 3b
       -0.008623827 0.032027263 -0.01901906 0.006763695
000100 a7 1f 09 3d e6 7e 90 3c 97 b2 6f 3c 41 48 8b bc
       0.03347745 0.017638635 0.0146299815 -0.017002227
000110 3b 4f 5d bc 57 04 3d bc be e0 fa 3b 33 b3 37 bd
       -0.01350766 -0.011536679 0.007656186 -0.044848632
000120 7a 81 8e 3c 92 2b 58 3c 17 11 96 3c c1 d0 1f bd
       0.017395724 0.013193982 0.018318696 -0.039017443
000130 ef b6 f2 bc 94 bf 82 3c 4a 12 85 bd 70 aa 3d 3c
       -0.029628245 0.015960492 -0.06497629 0.01157628
000140 18 1c b1 3c 83 26 5f bc 98 5d 81 bd 02 37 02 bd
       0.021619841 -0.013620022 -0.0631668 -0.03179074
000150 42 00 c3 3c aa dd ac bc a5 9e 1e bd 4f aa b5 ba
       0.023803834 -0.021101791 -0.038725514 -0.001385996
000160 1f c3 b7 3c 4d 8e 31 3b a9 ea 61 bc 34 e2 83 bb
       0.022431908 0.0027092875 -0.0137888575 -0.0040247682
000170 5d aa 15 bd 8a ec 58 bc 96 3f b2 bc 3d 18 7a bc
       -0.036539424 -0.013239989 -0.021758836 -0.015264568
000180 88 37 03 bc 16 f9 2e bd 69 f1 fd bc 88 fa 0a 3c
       -0.008008845 -0.042718016 -0.030998902 0.008482583
000190 b5 fd 10 bd 9c c7 39 3d 9c 0f c0 3c d8 87 22 bd
       -0.035398204 0.045356378 0.023444943 -0.039680332
0001a0 5f 14 86 bc 38 9e 5e bd 26 64 3a 3a 2b 77 eb bc
       -0.016367136 -0.054350108 0.000711026 -0.028743347
0001b0 17 47 a8 bc 39 63 e5 bc 62 25 26 bd a9 8b 49 3d
       -0.02054171 -0.028001415 -0.040562995 0.049205456
0001c0 4c 6c 41 bb 8a 90 0a 3d c0 1a 7f b9 13 06 e3 ba
       -0.0029514013 0.03382925 -0.0002432866 -0.0017320536
0001d0 4e 87 77 3d 95 96 05 bd 88 3d 37 bc 57 05 9b bc
       0.06043177 -0.03261431 -0.011184104 -0.018923445
0001e0 e1 d7 eb bc 8a 9d 4c 3d cc 1f 59 ba 2e f1 b5 3b
       -0.028789463 0.04995493 -0.0008282631 0.0055524325
0001f0 b2 e8 5e bc 74 67 f2 3c 96 59 1e 3c 00 72 a3 3c
       -0.013605284 0.029590346 0.009664914 0.01995182
000200 91 49 f4 bc 02 89 69 3c 9b ae 28 3d 2e d9 75 bc
       -0.029820235 0.014253857 0.04118214 -0.015005393
000210 a1 07 af 3c 77 38 48 bd 2c 48 b7 bc cc 44 e3 3b
       0.021365942 -0.048881974 -0.022373281 0.0069356915
000220 b9 95 75 3c 10 12 4f 3d fc e0 ee 3b 45 4f 0b bd
       0.01498931 0.050554335 0.007290004 -0.034011144
000230 78 bd 27 3b 47 04 10 bb d3 17 30 bc 72 69 15 bc
       0.002559511 -0.0021975206 -0.010747868 -0.009119378
000240 35 e9 09 bd e0 0d d1 3c 8c f8 0d 3c 68 5e 12 3c
       -0.03366967 0.025519311 0.008665215 0.008933641
000250 38 6c 0d bc f2 b2 1c bc c2 9a 95 bc 16 43 d6 bb
       -0.008631758 -0.009564148 -0.01826227 -0.006538759
000260 3c b2 13 bc 3c 56 53 bc 64 b4 c3 3c be 88 fb 3c
       -0.009014662 -0.012898978 0.023889728 0.030704852
000270 0d 06 9a bc 8f d5 80 3c e0 47 3c 3c 04 9b 22 3b
       -0.018801713 0.015726833 0.011491746 0.0024811635
000280 4c 9a fd 3b 91 c4 31 bc 31 c8 f8 3c b6 83 e9 3c
       0.007739341 -0.010850088 0.030368896 0.028505187
000290 36 e5 19 3d c7 82 88 3d 1c 00 be 3b 09 2a d7 3c
       0.03757211 0.06665569 0.005798353 0.026265161
0002a0 ba 5a 01 3d b4 6b 26 3d 63 b9 84 3c 1a 93 0d bc
       0.031580664 0.040630057 0.01620168 -0.008641029
0002b0 38 fe 62 3b 8a 19 01 3c 48 cd ac bc 2f 18 38 3d
       0.003463639 0.007879624 -0.02109398 0.04494494
0002c0 f2 8c 2f 3c d4 eb d6 bc cd f7 c2 bc d0 19 0a 3c
       0.010714756 -0.026235498 -0.023799801 0.008429006
0002d0 ce d2 63 bd e7 72 6d bc d5 e5 22 bd 3e c1 1f bc
       -0.05562096 -0.014492727 -0.039769966 -0.009750662
0002e0 aa 0d 34 bc eb 53 a8 bc 80 d8 15 b9 64 6d ae 3c
       -0.010989586 -0.020547828 -0.000142904 0.021292396
0002f0 94 38 0d bc 10 d1 de ba 28 f4 15 3d d8 0a 3b bc
       -0.008619446 -0.0016999561 0.0366098 -0.01141616
000300 e3 1d 4f 3d ee a0 ba 3c 26 22 98 bd ca 10 85 bd
       0.05056561 0.022781815 -0.07428388 -0.06497343
000310 51 5b 77 bc 6e 56 08 bc fc 22 63 bc fe ef 08 3d
       -0.015097455 -0.008321388 -0.013863321 0.033432
000320 2c 3d 0a bc d0 29 1a b9 dc 70 6c 3c 0c 33 e3 bc
       -0.008437436 -0.00014702161 0.014431205 -0.027734302
000330 cc 3d 13 3d 2c cc 2e 3b 4a 25 ec bc 34 e9 ed 3c
       0.035947606 0.002667199 -0.028826375 0.029041864
000340 2c da 84 3d 62 1a d7 3b 82 6c 33 3d 4a 29 1a 3b
       0.064869255 0.0065644244 0.043804653 0.0023523145
000350 29 f3 07 bd 83 0f 86 bb 40 ad 3b bc ab 96 b5 bc
       -0.03319088 -0.0040912046 -0.01145488 -0.02216657
000360 b4 b1 ca 3b 0d 58 02 bd 8b a5 09 3b 62 5d 17 3d
       0.0061857346 -0.031822253 0.0021003212 0.03695429
000370 64 a3 35 bd 6b 82 1e 3d d3 b8 83 bd 3d f7 40 3d
       -0.044345275 0.038698595 -0.06431737 0.047110785
000380 0d 70 12 3b 72 31 5d bc 8f a8 9c 3c 19 7e 3b bd
       0.002234462 -0.013500558 0.019123344 -0.045774553
000390 aa be 1a bb 04 6d aa bc cb 14 68 3c ce 9a 6d 3c
       -0.002361218 -0.020803936 0.014165114 0.01450224
0003a0 7b 7e 42 3c 73 be cb 3b 71 e3 ba bc b6 50 5d bd
       0.011870976 0.0062177717 -0.02281353 -0.05403205
0003b0 02 f0 4d 3b 74 1b 76 3b f6 05 0a bb dd 62 81 bd
       0.0031423573 0.0037552984 -0.0021060682 -0.06317685
0003c0 3f 89 59 3d b1 85 27 bb 82 e2 16 bc f1 29 90 3c
       0.053109404 -0.0025561864 -0.009209277 0.017598124
0003d0 18 50 97 bc 32 2a d0 bc 6c 0b c0 3b 36 54 e2 bb
       -0.018470809 -0.025410745 0.0058607366 -0.0069070114
0003e0 54 a7 a6 3c a0 a5 bc 3c 13 45 70 3c e8 77 be 3b
       0.02034346 0.023028195 0.014664906 0.005812634
0003f0 f2 a0 0c 3d b9 60 71 bd 2d 92 0d bd d8 df 12 bd
       0.034333177 -0.058930133 -0.034563232 -0.035858005
