data/gpt2-small/das_simple_train_ADJ_layer7.npy (npy, 3200 bytes, 1 tensors)

array f4 [768]
0	0x3be26c80	0.006909907
1	0x3cdbefca	0.026847739
2	0x3cf73b7a	0.030179728
3	0x3d5ec950	0.054391205
4	0xbd80d0e8	-0.06289846
5	0xbc92336a	-0.017846782
6	0x3bac2840	0.0052538216
7	0xbd695248	-0.056963235
8	0xbd33586e	-0.043785505
9	0x3d06cc11	0.032909457
10	0x3d74060e	0.059576087
11	0x3c92d3fe	0.017923351
12	0x3bc77747	0.006087217
13	0xbc30ac64	-0.010783289
14	0xbcc974e5	-0.024591872
15	0xbcae1ab2	-0.021252964
16	0xbab9c7d0	-0.0014173929
17	0xbc29a8a9	-0.010355153
18	0xbd4a6671	-0.049414102
19	0x3cf981b0	0.030457348
20	0x3d801f3c	0.062559575
21	0xbd284e51	-0.041090313
22	0xbd977c33	-0.07396736
23	0x3ba91cf8	0.005160924
24	0x3d0ee7ac	0.03488891
25	0x3cb0ffd2	0.02160636
26	0xbd8f0747	-0.0698381
27	0x3d82d137	0.06387561
28	0x3af6dbc0	0.0018833801
29	0x3d038b42	0.03211523
30	0xbc2a7c95	-0.010405679
31	0xbcc23a2f	-0.023709385
32	0x3d230136	0.039796077
33	0x3d0ed270	0.034868658
34	0x3d2775d9	0.040883873
35	0x3d80b340	0.06284189
36	0xbcf4b7ec	-0.029872857
37	0x3d9ba0a8	0.07599002
38	0x3c45820e	0.012054933
39	0xbd7a89d5	-0.061166603
40	0x3b7fda6c	0.0039040102
41	0xbb1b5b48	-0.002370553
42	0x3c391c66	0.011298275
43	0x3d1fac15	0.03898247
44	0xbcb2409a	-0.02175932
45	0xbce61865	-0.028087804
46	0xbc64f9a3	-0.013975534
47	0xbd459ab0	-0.048243225
48	0x3b9cbdba	0.0047833594
49	0x3d356f8f	0.044295844
50	0x3c3d375a	0.011548841
51	0xbd456564	-0.048192397
52	0xbcb73a7d	-0.022366757
53	0x3d45f7de	0.048332088
54	0xbb104b9c	-0.0022017723
55	0x3c4a07c5	0.012330954
56	0xbc3636ae	-0.011121435
57	0x3d0de400	0.034641266
58	0x3cc94f3c	0.024573915
59	0x3ceeb4e6	0.029138993
60	0xbce1910a	-0.02753498
61	0x3cc0f0f6	0.0235524
62	0xbb99839a	-0.0046848776
63	0xbc58302c	-0.013195079
64	0xbc15c04e	-0.009140087
65	0x3c7aed26	0.01531533
66	0x3ac835a0	0.001527477
67	0x3cde8529	0.027163105
68	0x3d994baf	0.074851386
69	0x3c834555	0.016024271
70	0x3cae0975	0.021244744
71	0x3cfc5a64	0.03080482
72	0x3c41fbb1	0.011839793
73	0xbcc92f17	-0.024558587
74	0x3bc75b63	0.006083892
75	0xbce273e8	-0.027643159
76	0xbd50ce02	-0.050977714
77	0x3ccbdc8d	0.02488544
78	0x3a957a40	0.0011404231
79	0x3b3d20f8	0.0028858762
80	0xbd626582	-0.055272587
81	0xbcab52fc	-0.020913593
82	0x3bd7f16c	0.006590059
83	0x3af06e28	0.0018343376
84	0xbc92e8ce	-0.017933276
85	0x3d311c96	0.043240152
86	0xbc869951	-0.016430529
87	0xbb31bdbc	-0.0027121147
88	0x3aa20820	0.001236204
89	0xbc4c06c4	-0.012452785
90	0x3c6dd11d	0.0145151885
91	0xbc2f1a99	-0.010687494
92	0x3b6cb1d0	0.0036116727
93	0xbcdf118d	-0.027230049
94	0x3d150ebd	0.03639101
95	0x3cce6508	0.02519466
96	0x3d0f064a	0.034918107
97	0xbb4a53b8	-0.0030872654
98	0x3bef32bc	0.007299749
99	0xbab8006c	-0.0014038212
100	0x3d04eb29	0.03245083
101	0xbda7ee82	-0.08199789
102	0x3d073265	0.033007044
103	0x3c633fe3	0.013870212
104	0x3d5a1f10	0.05325228
105	0x3b325558	0.0027211513
106	0xbcc2d936	-0.023785215
107	0x3c92e33c	0.01793062
108	0xb92e3b40	-0.00016616005
109	0x3c9e2739	0.019305812
110	0x3bd482f9	0.0064853397
111	0xbcd83919	-0.026394414
112	0xbb9b56f4	-0.00474059
113	0x3d769739	0.06020281
114	0x3d7bf598	0.061513513
115	0xbd25f4e6	-0.040516756
116	0x3d0df37a	0.034656025
117	0xbddd4873	-0.10804834
118	0x3c7785e2	0.015107604
119	0xbbd0414c	-0.0063554402
120	0xbd9c2887	-0.076249175
121	0x3afa8170	0.0019112062
122	0xbd825810	-0.06364453
123	0x3d1a4de8	0.037671953
124	0xba920d8a	-0.0011142951
125	0x3b8421c8	0.0040323474
126	0x3ca2b05e	0.019859489
127	0xbcf619e2	-0.030041639
128	0x3c5b2c89	0.013377317
129	0xbcf59a79	-0.029980885
130	0x3d522c3b	0.051311713
131	0x3bcbb880	0.0062170625
132	0x3d28afb8	0.041183203
133	0x3d2bcbd0	0.041942418
134	0xbca12808	-0.019672409
135	0x3d2f58ca	0.042809285
136	0xbd57878e	-0.05261951
137	0x3c49872a	0.012300292
138	0x3d5d7922	0.0540706
139	0x3d17fbd7	0.037105408
140	0x3d8e8161	0.06958271
141	0x3c92aa79	0.017903553
142	0xbbc82f58	-0.0061091594
143	0xbd08ed08	-0.033429176
144	0xbd030e48	-0.03199604
145	0xbcc16689	-0.023608463
146	0xbcb59626	-0.022166323
147	0x3cc806ec	0.024417363
148	0x3d0b8e8b	0.034071486
149	0x3d1252f8	0.035723656
150	0xbca63968	-0.020291045
151	0xbc77e670	-0.015130624
152	0x3bbb280e	0.005711562
153	0xbaeaed4e	-0.0017923506
154	0xbb4094e4	-0.002938562
155	0x3ca1297b	0.0196731
156	0x3d074870	0.033028066
157	0x3cd9d850	0.026592404
158	0x3d50c094	0.050964907
159	0x3ce8889a	0.02838545
160	0x3d1565b2	0.036473937
161	0x3d851477	0.06498044
162	0xbdaccb6d	-0.08437238
163	0x3da34120	0.07971406
164	0x3b97d544	0.0046335775
165	0xbd0853dc	-0.0332831
166	0xbcaad790	-0.020854741
167	0xbba96cb8	-0.005170431
168	0xbd0bf503	-0.03416921
169	0xbc5c9f09	-0.013465651
170	0x3dc730db	0.09726115
171	0x3c609440	0.013707221
172	0x3d1e1aa2	0.038599618
173	0x3ca957f4	0.020671822
174	0xbcb10fc0	-0.021613955
175	0x3d5b3de5	0.053525824
176	0xbd649ebe	-0.05581545
177	0xbcbb53b4	-0.022867061
178	0x3d2997de	0.041404597
179	0xbc421315	-0.01184537
180	0x3afe9e80	0.0019425899
181	0xbc98ad77	-0.018637402
182	0x3be2e6b6	0.0069244755
183	0xbd248416	-0.04016503
184	0xbbbbc6c9	-0.005730484
185	0x3c9dfa48	0.019284382
186	0xbce3cb68	-0.027806953
187	0xbc1627d4	-0.009164769
188	0x3c950292	0.018189702
189	0xbc825da3	-0.01591379
190	0x3c37dca0	0.011222035
191	0x3c955fb5	0.018234113
192	0x3ca4dc68	0.02012463
193	0x3cd75086	0.026283514
194	0x3ce135c4	0.027491458
195	0x3d71c758	0.059028
196	0xba870840	-0.0010302141
197	0xbcc207a5	-0.023685286
198	0x3d48e1be	0.04904341
199	0x3ca820a5	0.020523379
200	0x3d020cf8	0.03175065
201	0x3d0fe633	0.035131644
202	0x3d1d1e28	0.038358837
203	0x3cc039de	0.023465093
204	0xbd0bc56d	-0.034123827
205	0x3b6a504a	0.0035753422
206	0xbd00bcc0	-0.031430006
207	0x3c91eed4	0.017814077
208	0xbdac6d43	-0.084192775
209	0x3b923ee6	0.0044630645
210	0x3b074508	0.002064051
211	0x3bf445c0	0.007454604
212	0xbd598cfd	-0.053112973
213	0xbd04c52a	-0.032414593
214	0x3c985704	0.01859618
215	0xbd7af89e	-0.061272256
216	0x3cdad7e2	0.02671427
217	0x3ccac8de	0.024753984
218	0x3c1dc68d	0.009629858
219	0x3c3a80c8	0.011383243
220	0xbc9b9308	-0.018991008
221	0xbd63d9ec	-0.05562775
222	0xbcb8baab	-0.022549948
223	0x3c594030	0.013259932
224	0xbd44929f	-0.04799139
225	0xbbf64dd8	-0.007516604
226	0x3d3df626	0.046377324
227	0xbcccbcd5	-0.024992386
228	0x3d17a9df	0.037027236
229	0x3d29cb22	0.04145349
230	0xbcca4f3a	-0.024695981
231	0x3d425834	0.0474474
232	0xbc1e96b0	-0.009679481
233	0x3c3c01c5	0.011475031
234	0xbc7a9316	-0.015293857
235	0x3d7ad35d	0.061236728
236	0x3cc713e9	0.024301486
237	0xbc450925	-0.012026106
238	0xbcf640b6	-0.030060153
239	0x3d659fd0	0.056060612
240	0xbcc4b451	-0.024011763
241	0x38cb0780	9.681191e-05
242	0x3d52a2c3	0.051424753
243	0x3d2ec040	0.042663813
244	0x3c7f1918	0.015569948
245	0xbc9aa2ea	-0.018876512
246	0x3d2d01c3	0.04223801
247	0xbbf6e6b8	-0.007534828
248	0x3d19ce34	0.037550166
249	0x3c7463a0	0.014916331
250	0x3ccd78a3	0.025081938
251	0x3be6e71c	0.0070465934
252	0x3ce8f166	0.02843542
253	0xba0bf660	-0.0005339142
254	0xbcfe85f2	-0.03106973
255	0xbc7b4b5e	-0.015337793
