data/gpt2-small/das_simple_train_ADJ_layer11.npy (npy, 3200 bytes, 1 tensors)

array f4 [768]
000000 40 41 74 3b 46 c7 d1 3c 40 3c 66 3b 80 fa c7 3c
       0.0037270337 0.025607716 0.0035131127 0.02441144
000010 a8 7a 09 bd 9c 3e 70 bb 18 4a 44 3c 82 e4 35 bd
       -0.03356424 -0.0036658412 0.011980556 -0.044407375
000020 32 7a 12 bd dd 89 11 3d 92 d0 7c 3d ea 84 4b 3d
       -0.035761066 0.035531867 0.061722346 0.049687304
000030 fd 09 b7 bc 3b 56 82 bc 2c f4 f4 bc 74 c0 9a bc
       -0.02234363 -0.015910259 -0.029901586 -0.018890597
000040 4c 13 18 3d 23 b9 31 bd 7d dc 9b bc 77 43 17 3d
       0.037127778 -0.04338945 -0.019026035 0.036929574
000050 c8 6b 67 3d f1 2a 39 bd d3 d1 7d bc 4b 93 bc 3b
       0.056499273 -0.045206968 -0.0154919205 0.0057548634
000060 a8 18 e5 3b f7 a5 82 bc 8d ed 96 bc 58 7b 3b 3d
       0.0069914646 -0.015948279 -0.01842382 0.045771927
000070 fa 87 09 3d 13 a1 d0 3c d0 67 3a 3d 25 68 28 bd
       0.033576943 0.025467431 0.04550916 -0.041114945
000080 a8 00 e3 3b ce b5 9f 3c a3 e3 c2 3d 2e 86 45 3d
       0.0069275685 0.01949587 0.095160745 0.048223667
000090 9c 23 91 bb f0 b1 61 3d 32 ea 1f bd e6 77 78 bd
       -0.004429294 0.055101335 -0.039041705 -0.06066122
0000a0 98 52 ac 3a a5 fe 12 3c 56 1f 14 3c c0 01 f2 3a
       0.0013147173 0.008971845 0.009040674 0.0018463656
0000b0 90 62 c5 bc ae 66 77 3c a3 3e 4e 3c 18 87 eb 3b
       -0.02409485 0.015100164 0.012588176 0.0071877353
0000c0 54 fe 8a bc 8a b8 3f 3c c5 70 82 3c 7e 58 1f bd
       -0.016966976 0.011701712 0.015922913 -0.038902752
0000d0 08 d0 08 3b 1a 46 88 3d 44 8e 53 3c 8a c7 77 3c
       0.002087595 0.06653996 0.012912337 0.015123257
0000e0 79 2b c1 bc c2 93 45 3c 24 89 89 3b 24 07 bc 3c
       -0.0235803 0.012059154 0.0041972566 0.022952624
0000f0 1a 55 f6 bb 7e 04 5d 3c de 45 c4 bb 98 c4 57 bc
       -0.007517469 0.013489841 -0.005989774 -0.01316943
000100 94 c2 b4 3b 7e 30 3e bd 54 6d ff bc 82 71 96 bc
       0.0055163596 -0.046432965 -0.031180061 -0.018364672
000110 42 ca cf 3d 1a a4 0e bd e6 6e ce 3c 08 86 ea bb
       0.101459995 -0.03482447 0.025199365 -0.007157091
000120 ec e1 b7 3a 0d 95 08 bc d6 77 0c 3c 8a f2 b7 bc
       0.0014029122 -0.008336318 0.008573493 -0.022454519
000130 11 12 91 bd 4a e0 75 3d e4 c0 5d 3c 01 2e 73 3c
       -0.07083524 0.06002835 0.013534758 0.014842511
000140 fa 00 02 bd ed ca 2b bd 3c 72 b2 3b c6 d8 d5 bc
       -0.031739213 -0.041941572 0.0054457467 -0.026104342
000150 ba 72 91 bc 90 c8 ec 3c 8a 18 1f bd 64 08 ce 3b
       -0.017754901 0.02890423 -0.03884176 0.0062876213
000160 66 82 c1 bc ae 69 3a 3b c4 9c bc 3c f2 72 8b bc
       -0.02362175 0.0028444338 0.02302397 -0.017022584
000170 40 27 2b 3a 40 b0 b9 39 ec e2 8e 3c f6 94 9c 3c
       0.0006528981 0.00035417266 0.01744219 0.019113999
000180 70 77 a4 3d 08 9a c8 3c b6 ce 6f bc e8 10 31 bd
       0.080305934 0.02448751 -0.014636686 -0.043229014
000190 0c 4c 1d 3d 2f 73 3b bd a9 08 49 3c e6 ae bd 3c
       0.038402602 -0.045764145 0.012270131 0.023154687
0001a0 a8 8f c4 3c a0 0c 95 bb 76 87 43 3b f8 f1 80 3b
       0.023994282 -0.004548624 0.002983538 0.003935095
0001b0 cb 77 0c 3d c9 d1 9a 3c ad 95 92 3d 60 a2 97 bc
       0.03429393 0.018898861 0.07157455 -0.018510044
0001c0 24 83 a8 3b 85 a3 17 3d 39 95 bb 3d a6 ce c1 bc
       0.0051425863 0.03702118 0.09159321 -0.023658108
0001d0 14 b4 8e 3b 47 d9 41 bd ca bc 1e 3d c8 a5 50 3d
       0.004354963 -0.047326352 0.038754262 0.05093935
0001e0 88 99 81 bd 0d e4 12 bd 5f be 93 bd 00 38 d5 3c
       -0.06328112 -0.035862017 -0.07214045 0.02602768
0001f0 9a f2 a3 bc fc ec fd bc 09 f7 f8 3c 52 7e aa 3c
       -0.020013142 -0.030996792 0.030391233 0.020812187
000200 c8 da 1e bb f8 51 9d bc 82 2e 28 3d b0 d6 94 bb
       -0.002423929 -0.019204125 0.04105998 -0.0045421943
000210 b0 73 ac 3c 30 20 3f 3c b6 c2 fe 3b 54 6c 3e 3d
       0.021051258 0.011665389 0.007774676 0.04649003
000220 f1 77 93 bc 10 35 8c 3c 6f eb 71 3d eb 1c 0f 3d
       -0.018001528 0.017115146 0.059062418 0.034939688
000230 c5 d5 08 3d 4f c1 8e bc f6 aa c8 3c 6c 17 dc 3b
       0.03340699 -0.017426161 0.024495583 0.0067166593
000240 a3 cd 37 3c 86 a0 05 bd f5 19 ba bb dc 77 01 3c
       0.011218461 -0.03262379 -0.005679364 0.007902112
000250 e0 57 88 38 4e fb 93 3d b0 02 3e bb 9c bc ce bc
       6.501353e-05 0.07225667 -0.00289933 -0.02523642
000260 4d f4 a8 3c 10 2e 01 3c b7 0a 26 bd 30 f8 16 3b
       0.020624304 0.007884517 -0.040537562 0.0023036115
000270 6f 5c 16 bd df 57 a5 3b 9c 3f 80 3c 05 b7 e6 3c
       -0.036709245 0.0050458754 0.015655331 0.028163442
000280 76 ed 75 3d fe 69 db 3d 3a b0 ae bc ba b2 5b 3d
       0.060040914 0.10713576 -0.021324266 0.053637244
000290 6e 76 1c 3c 50 15 fb bc 58 9e 06 bd c9 96 5c bc
       0.00954972 -0.030649811 -0.032865852 -0.013463684
0002a0 86 ca 33 bd c8 bc ba 3b 28 67 a5 3d e4 aa 63 bd
       -0.043894313 0.005698774 0.08076316 -0.055582896
0002b0 cb 77 bd 3c 1e aa 0c 3d 68 51 40 3b 21 f3 ff 3c
       0.02312841 0.034341924 0.0029345397 0.031243863
0002c0 c2 86 e8 bc 68 fe 69 bd 1c 7b a1 3b c3 ed 49 bd
       -0.02838457 -0.057127386 0.004928006 -0.049299013
0002d0 a6 ac 32 bd 8a f5 1a 3d 3e ef 02 bc f2 15 49 bd
       -0.04362168 0.03783182 -0.00799161 -0.049093194
0002e0 00 a9 9c bc 78 aa dd 3a 60 a4 df ba 40 41 f0 b9
       -0.019123554 0.0016911766 -0.0017062537 -0.00045824982
0002f0 59 6e 28 3c ab 37 9c bc 10 71 01 3d f7 43 89 3d
       0.010280215 -0.019069513 0.031601965 0.067024164
000300 98 49 c0 3c fa 34 98 3d fe c3 77 3c 90 8b be 3d
       0.023472592 0.074319795 0.015122412 0.09303963
000310 d1 e4 37 bc 4c 0e 55 bc 78 ca 81 3d bc 11 46 3d
       -0.011223988 -0.013003897 0.06337446 0.048356757
000320 7f b1 8c 3c 88 7b dc 3c f5 34 bf 3c 98 1a e0 3c
       0.01717448 0.026914373 0.023340682 0.02735643
000330 a4 68 0f bd be df 1d bd 92 c5 f2 bc 90 1e df ba
       -0.035011902 -0.038543455 -0.029635224 -0.0017022658
000340 fe 40 3e bd 00 6c f4 37 2f 72 d2 3c 60 1c 92 3c
       -0.0464487 2.9137358e-05 0.025689213 0.017835796
000350 02 7d 1e bd 78 82 04 bc f0 9e 95 3c d5 77 99 bc
       -0.038693435 -0.008087747 0.018264264 -0.018733898
000360 60 c9 25 bd 64 37 fc bc ca 5b bd 3c 77 c5 96 3c
       -0.04047525 -0.030788131 0.023115057 0.018404705
000370 40 5c a0 3a 28 8c 7b bd 3f 2e be bc fc a5 6e bc
       0.0012234524 -0.06141296 -0.023215411 -0.014565941
000380 b4 b8 f5 3b 8a 39 e9 3b 66 23 fb 3c 90 59 fd bc
       0.007498825 0.007117455 0.030656528 -0.030926496
000390 50 4a 48 3d c4 27 72 3c d0 68 30 bc af c3 a9 3d
       0.048898995 0.014779989 -0.010767177 0.08289277
0003a0 26 af 0c bd 3f 0b 52 bc 86 e6 8f bc 67 ec 6d 3d
       -0.034346722 -0.012820064 -0.017565977 0.05808678
0003b0 55 6b 82 bc eb 60 2a 3d 06 06 3c 3c 63 f1 8a 3d
       -0.01592032 0.041596334 0.0114760455 0.06784322
0003c0 d4 fb 97 bc bb 89 8e 3c bc 43 77 3c 2d 3d 17 3d
       -0.018552698 0.01739966 0.015091833 0.036923576
0003d0 ad 05 9d 3c 60 3a 9b ba 65 01 7f 3d ce 79 ac 3b
       0.019167745 -0.0011842959 0.06225719 0.0052635437
0003e0 de 43 41 3d 72 47 ae 3c 1c 7c 67 bc c7 b6 07 bc
       0.047183864 0.021274302 -0.014128711 -0.008283324
0003f0 49 e5 da 3c 6c 1d f5 bb 28 b4 f9 bc ec 72 dd 3b
       0.02672066 -0.007480314 -0.030481413 0.0067580845
