data/gpt2-small/das_simple_train_ADJ_layer3.npy (npy, 3200 bytes, 1 tensors)

array f4 [768]
0	0x3da19036	0.07888834
1	0x3b3b6ed8	0.0028600004
2	0x3cb3c27e	0.021943327
3	0x3d39edb1	0.045392696
4	0xbd24ed77	-0.040265527
5	0x3b27ffd8	0.0025634672
6	0xba0925c0	-0.00052317604
7	0xbce58b9d	-0.028020674
8	0xbcd7d44f	-0.026346354
9	0xba7597e4	-0.0009368642
10	0x3d34964f	0.044088658
11	0x3c01d958	0.007925354
12	0x3bdb4290	0.0066912845
13	0x3be33f24	0.006935017
14	0xbd7b7dfa	-0.061399437
15	0xbd3f3f70	-0.046691358
16	0xbbbc1b84	-0.005740585
17	0x3c80ea0a	0.015736599
18	0xbcb699ba	-0.0222901
19	0x3d02e679	0.031958077
20	0x3d1e6f3c	0.0386803
21	0x3b0b6a70	0.0021273158
22	0xbd4af081	-0.04954577
23	0x3badaade	0.00529991
24	0x3ce6a444	0.0281545
25	0xbb53a950	-0.0032296963
26	0xbd852189	-0.06500537
27	0x3d291f57	0.041289654
28	0x3d0b5c0c	0.03402333
29	0x3c453330	0.01203613
30	0x3b325ec4	0.002721713
31	0xbd77d81c	-0.060508832
32	0x3b543718	0.0032381471
33	0x3c3fadd2	0.011699157
34	0x3d8e0f54	0.06936517
35	0x3dee9364	0.11649206
36	0xbc8eff1c	-0.01745563
37	0x3dce2706	0.10066037
38	0xbd0e2887	-0.03470662
39	0xbca0de4f	-0.019637255
40	0xbbf36850	-0.0074282065
41	0xbcd1f8c8	-0.025631323
42	0xbc624df0	-0.013812527
43	0x3c43dd40	0.011954606
44	0xbc4c909a	-0.012485648
45	0xbcd426d6	-0.025897425
46	0xbc89d248	-0.016823903
47	0xbd16e6d0	-0.036841214
48	0x3c2f37b0	0.010694429
49	0x3d47da0b	0.048791926
50	0xbcb9469f	-0.022616683
51	0xbc1667c6	-0.009180015
52	0x3cb0f9b6	0.021603446
53	0x3d5d4688	0.054022342
54	0xbb998356	-0.004684846
55	0x3d4ff4d6	0.050770603
56	0xbcf5a2a2	-0.029984776
57	0x3d9fe1e6	0.078067586
58	0xbb226bf8	-0.0024783593
59	0x3da94770	0.08265579
60	0xbd5a2b95	-0.05326422
61	0x3b55fb50	0.0032651015
62	0xbc8c7299	-0.017144488
63	0xbd5824c0	-0.052769423
64	0x3d96078b	0.073256575
65	0xbc3bea50	-0.011469439
66	0xbd02130a	-0.03175644
67	0x3ccc4bfd	0.024938578
68	0x3d88115a	0.066439345
69	0x3c483d20	0.012221605
70	0xbc4f4b00	-0.012652159
71	0xbbcb83b8	-0.0062107705
72	0xbb419abc	-0.0029541692
73	0xbc9b9bb8	-0.01899515
74	0x3c90f104	0.01769305
75	0xbcefb1a3	-0.029259508
76	0xbcf33a64	-0.029690929
77	0x3d6a59f6	0.0572147
78	0x3c1eabe0	0.009684533
79	0x3c31fe3b	0.010863836
80	0xbbe915a4	-0.0071131755
81	0xbcdf64db	-0.027269771
82	0xbd07d4d0	-0.03316194
83	0x3bf54710	0.007485278
84	0x3bebed68	0.007199932
85	0x3d230995	0.03980406
86	0xbc508bbc	-0.012728628
87	0x3d4203cc	0.047366902
88	0xbcb59f64	-0.02217073
89	0x3c3f0cf0	0.011660799
90	0x3cbc157f	0.022959469
91	0xb8280200	-4.0056184e-05
92	0xbcc7ef6e	-0.024406161
93	0xbcce3392	-0.025171075
94	0xbc33ba38	-0.010969691
95	0x3ccda826	0.025104593
96	0x3cbea92d	0.023274029
97	0xbd18be7c	-0.037291035
98	0x3cc9a848	0.024616376
99	0x3c646929	0.013941088
100	0x3d160af3	0.036631536
101	0xbd93263b	-0.07185026
102	0x3cec4337	0.028840644
103	0x3bca2724	0.0061692167
104	0x3d45ab68	0.04825917
105	0xbc6ac3d4	-0.014328916
106	0xbb0f4bc8	-0.0021865238
107	0x3cf73751	0.030177744
108	0xbb5487d0	-0.0032429583
109	0x3b82f61e	0.0039966246
110	0x3c978510	0.018496066
111	0x3cd622bd	0.026139611
112	0xbd007ce0	-0.03136909
113	0x3c83282e	0.01601037
114	0x3d9fc123	0.0780051
115	0xbd7e6520	-0.06210816
116	0x3d837130	0.06418073
117	0xbd8a0e2a	-0.06740983
118	0x3c875287	0.016518844
119	0x3c036120	0.008018762
120	0xbd06853e	-0.032841913
121	0x39fe83c0	0.00048544817
122	0xbd31e8dd	-0.043434966
123	0x3d3ccd34	0.046094134
124	0xbc6a3b6a	-0.014296392
125	0xbc5cc0e7	-0.013473726
126	0xbc67e702	-0.014154198
127	0xbd43baab	-0.047785442
128	0x3c80b859	0.015712904
129	0xbc474090	-0.012161389
130	0x3cb1ffcf	0.021728424
131	0xbcb51212	-0.022103343
132	0x3a82de00	0.0009984374
133	0x3d1912ea	0.037371553
134	0xbafaefe0	-0.0019144975
135	0x3d5e7aa6	0.054316185
136	0xbd82a7d9	-0.06379671
137	0x3c9adb75	0.018903473
138	0x3d5bf188	0.05369714
139	0xbbcc9a80	-0.006244004
140	0x3d93c0d0	0.072145104
141	0xbcc59014	-0.024116553
142	0x3b339c88	0.0027406532
143	0x3bb18618	0.0054175965
144	0xbb88f940	-0.0041801035
145	0xbb08f85c	-0.0020899987
146	0xbcfce1b2	-0.030869339
147	0x3d4eb9f8	0.050470322
148	0xba960628	-0.0011445927
149	0x3cc25a2c	0.023724638
150	0xbcd5439d	-0.026033217
151	0x3c0da564	0.008645389
152	0xbc04419f	-0.008072286
153	0x3b55dfb6	0.0032634563
154	0xbc4e386f	-0.012586697
155	0x3c46f25f	0.012142747
156	0x3b92eefb	0.004484055
157	0x3cb1547a	0.021646727
158	0x3d3d8d80	0.046277523
159	0x39af5440	0.00033441372
160	0x3cc1d86b	0.023662766
161	0x3d294653	0.041326832
162	0xbdb94796	-0.09046857
163	0x3dab7b20	0.083730936
164	0x3d11e7f1	0.035621587
165	0xbc3ae0fc	-0.0114061795
166	0xbd1cd1b9	-0.038285945
167	0xbd256aa5	-0.040384907
168	0xbc0ec6b6	-0.008714369
169	0xbcf2f967	-0.02965994
170	0x3da67d53	0.081293724
171	0x3c58d18d	0.013233555
172	0x3ce9e6c0	0.028552413
173	0x3caa139b	0.020761302
174	0xbc8ec701	-0.017428877
175	0x3cb0fd81	0.021605255
176	0xbcee78aa	-0.029110271
177	0xbba02dce	-0.004888273
178	0x3cd5fb74	0.026120879
179	0xbca06ae8	-0.019582227
180	0xbd32a238	-0.043611735
181	0x3c775536	0.015095999
182	0x3c89983f	0.01679623
183	0xbd6855cf	-0.05672246
184	0xbc3bf7f7	-0.011472694
185	0x3d1839fc	0.037164673
186	0xbd1e4afa	-0.038645722
187	0xbb368340	-0.0027849227
188	0xbca9d514	-0.020731486
189	0xbc84958d	-0.016184593
190	0x3d01417b	0.031556588
191	0xbb019ab2	-0.0019776043
192	0xbb828dd0	-0.0039841905
193	0x3cda8b97	0.02667789
194	0x3d90da97	0.07072943
195	0x3d2d69c2	0.042337187
196	0xbb5c2610	-0.0033592023
197	0xbd1854ef	-0.037190374
198	0x3d68faae	0.05687969
199	0x3d41b9e0	0.047296405
200	0x3ccf1b68	0.025281623
201	0xbb8242ed	-0.0039752633
202	0x3b44d824	0.0030036056
203	0x3d5eb7bc	0.05437444
204	0xbabcb800	-0.0014398098
205	0xbc0fe4af	-0.00878255
206	0xbd1582ed	-0.036501814
207	0xbcda4d99	-0.02664833
208	0xbda013fb	-0.07816311
209	0xbca33455	-0.019922415
210	0x3cf72038	0.03016673
211	0x3c655620	0.013997585
212	0xbd2b6ecc	-0.04185371
213	0xbcbf3398	-0.023340032
214	0x3d0b9fb4	0.03408785
215	0xbd419743	-0.047263395
216	0xbc943170	-0.01808998
217	0x3c29879f	0.010347276
218	0xbc90b714	-0.017665423
219	0x3c72272e	0.014779849
220	0x3b84fd24	0.004058497
221	0xbce273c6	-0.027643096
222	0xbd844f12	-0.06460394
223	0x3b621060	0.0034494624
224	0xbd37dbc8	-0.044887334
225	0xbba2d4b0	-0.004969202
226	0x3d8fc6c7	0.07020336
227	0xbd161e9b	-0.03665028
228	0x3d1c8b8a	0.038219012
229	0x3c64bb68	0.013960697
230	0x3ced4390	0.02896288
231	0x3d1dd5d6	0.038534008
232	0xbbc09766	-0.005877423
233	0xbb73c738	-0.00371976
234	0xbcc25fe2	-0.023727361
235	0x3d892bcb	0.06697806
236	0x3c8e94c0	0.017404914
237	0x3bec5d6c	0.007213285
238	0x3b3f4118	0.0029183086
239	0x3cf6489f	0.030063925
240	0xbcc43553	-0.023951208
241	0x3cb38714	0.021914996
242	0x3d4525cd	0.048131753
243	0x3d0f01cc	0.034913823
244	0x3d1c3892	0.038139887
245	0xbbc22428	-0.0059247203
246	0x3d110de8	0.035413653
247	0xbc533172	-0.012890207
248	0x3d24e029	0.04025284
249	0x3d143185	0.036180038
250	0x3c56f89a	0.013120795
251	0x3af0ec10	0.0018380899
252	0x3b2e0af8	0.002655683
253	0xbd530b26	-0.051524304
254	0xbc40355b	-0.011731471
255	0xbd659893	-0.05605371
