data/gpt2-small/das_simple_train_ADJ_layer10.npy (npy, 3200 bytes, 1 tensors)

array f4 [768]
-0.06634227 0.0033492045 0.011698485 -0.007927472 0.045742262 0.00083445036 -0.013852607 0.047944054
0.03435942 -0.054291677 -0.04573201 -0.017206721 0.022925422 0.00638335 0.05440045 0.021149023
-0.007651245 0.0023331265 0.029313918 -0.020131547 -0.06446086 0.02423679 0.033229567 -0.004525204
-0.0145316515 -0.00030169077 0.0077874996 -0.06390366 -0.05222506 -0.04602413 -0.04071953 0.011489328
0.0025746403 -0.017504044 -0.073923334 -0.058651518 0.008870076 -0.08861028 0.011487696 0.05123669
-0.006128872 0.0016938113 -0.021467423 -0.027356977 0.006141575 0.005505666 0.008700264 -0.014216438
0.0060283653 -0.03148534 -0.0077023814 0.040721573 -0.0070064217 -0.044976026 -0.010518996 -0.01863352
0.033861488 -0.0014192741 -0.0021146927 -0.050339002 0.008308448 -0.017376654 0.024246825 0.03491106
0.027719032 0.013256781 0.04152373 0.016960993 -0.07237385 0.016959943 -0.040213402 -0.008108556
-0.011348095 0.0513916 0.0019505145 0.033130422 0.044269215 -0.035685305 0.021529984 -0.0069233654
0.006800223 0.03365484 -0.0050200745 0.018802626 0.059797406 -0.03819641 0.031098697 -0.0032824064
0.04081773 0.010235564 -0.028034993 -0.002810493 0.024380777 0.002678031 -0.03314229 -0.013761025
-0.083578296 -0.013418427 0.025055371 0.010165542 -0.006108055 0.05802114 -0.018746356 -0.028338058
-0.03350723 0.006067682 0.01413541 -0.0065665226 -0.042310573 -0.03799721 -0.04892412 0.018397782
-0.0032765307 -0.027850993 -0.08390146 0.055634372 -0.030506946 0.06507978 -0.02472261 -0.019836826
0.04518978 0.015882963 0.06599673 -0.04428123 0.0015478292 -0.009522347 -0.033851556 0.04217963
0.00406854 0.035726756 -0.05194524 0.01334553 -0.012380204 -0.007429894 -0.00076747034 -0.05321461
0.039465584 -0.014991078 -0.05936294 -0.05458772 -0.046536043 0.010551907 0.011654042 0.0054761576
0.031205285 0.039204672 0.00048195093 -0.03939765 -0.014562441 -0.0497268 0.02822199 0.025405034
-0.017550796 -0.020132065 0.0038604783 -0.030790985 -0.0010105725 -0.038853332 -0.042484876 -0.04097274
-0.051643673 -0.07535542 0.038288508 -0.07674897 -0.017592166 -0.005288312 0.008064983 0.02490603
0.022954863 0.0076754317 -0.09666325 0.017820498 -0.009201191 -0.020145968 -0.012172505 -0.045767404
0.03344256 0.06272587 -0.023546934 0.014519488 0.033340782 -0.014010311 0.0045929756 0.05257463
0.011856568 -0.0041765273 0.010323035 0.0067951903 -0.0020698048 0.03143023 -0.03782484 -0.028921802
-0.033741947 -0.0422201 -0.016888663 -0.07016024 -0.011254691 -0.0056776796 -0.039034504 -0.030157259
-0.0327333 -0.01249176 -0.058951702 -0.0298519 0.045189112 0.011456288 0.03718824 0.0032853782
0.06459216 -0.024909109 -0.026243268 0.020229276 0.03504122 0.030141387 -0.015614364 0.052538194
0.013210531 0.00897065 -0.004348787 -0.023174979 0.025753507 0.059008505 0.0451075 -0.012779141
0.011662735 -0.0014576502 -0.061792348 0.055327307 -0.04069016 -0.03916088 0.0012174416 -0.062311515
-0.005425997 0.012279011 -0.020222846 -0.069111384 0.014682703 -0.019615153 -0.003360637 -0.06713115
0.030125588 -0.023423348 -0.030366385 -0.023061888 -0.01407537 -0.008131241 -0.074994236 -0.008726153
-0.054586023 -0.0256243 -0.0023689736 0.012611851 -0.027265541 0.012731755 0.010786423 7.656589e-05
00000000: 75de 87bd 547e 5b3b 01ab 3f3c 3ae2 01bc
00000010: 3d5c 3b3d 04bf 5a3a 0cf6 62bc fc60 443d
00000020: 77bc 0c3d f360 5ebd 7d51 3bbd 1cf5 8cbc
00000030: 18ce bb3c 6c2b d13b 02d3 5e3d b740 ad3c
00000040: 4cb7 fabb 5ee7 183b be23 f03c eaea a4bc
00000050: 0e04 84bd 3c8c c63c ba1b 083d 2a48 94bb
00000060: 2a16 6ebc 402c 9eb9 482e ff3b ecdf 82bd
00000070: f2e9 55bd cc83 3cbd 86c9 26bd bc3d 3c3c
00000080: 4cbb 283b a464 8fbc 1e65 97bd 933c 70bd
00000090: cc53 113c 4e79 b5bd e436 3c3c 90dd 513d
000000a0: b4d4 c8bb e002 de3a 73dc afbc bd1b e0bc
000000b0: 443f c93b e068 b43b 8d8b 0e3c 10ec 68bc
000000c0: 9889 c53b c6f6 00bd 4264 fcbb aacb 263d
000000d0: 2096 e5bb c838 38bd de57 2cbc 53a5 98bc
000000e0: 58b2 0a3d f006 baba a896 0abb 4530 4ebd
000000f0: 2820 083c 7c59 8ebc 47a1 c63c e6fe 0e3d
00000100: 0613 e33c f832 593c c914 2a3d c8f1 8a3c
00000110: be38 94bd 94ef 8a3c cfb6 24bd c0d9 04bc
00000120: 5ced 39bc 0080 523d 68a8 ff3a c4b3 073d
00000130: a353 353d c12a 12bd a65f b03c 66dd e2bb
00000140: 68d4 de3b a8d9 093d 707f a4bb f707 9a3c
00000150: 20ee 743d d773 1cbd b2c2 fe3c a41d 57bb
00000160: 7e30 273d 11b3 273c a4a9 e5bc 4030 38bb
00000170: 32ba c73c e881 2f3b 36c0 07bd ec75 61bc
00000180: 192b abbd f6d8 5bbc ec40 cd3c 608d 263c
00000190: 1426 c8bb 93a7 6d3d f591 99bc 3725 e8bc
000001a0: e13e 09bd 68d3 c63b 3598 673c fc2b d7bb
000001b0: da4d 2dbd f6a2 1bbd a864 48bd f2b6 963c
000001c0: 10bb 56bb c427 e4bc 87d4 abbd dee0 633d
000001d0: b4e9 f9bc 8c48 853d 1287 cabc d780 a2bc
000001e0: eb18 393d fd1c 823c 4b29 873d 3c60 35bd
000001f0: 88e0 ca3a 9e03 1cbc eea7 0abd 8cc4 2c3d
00000200: 6351 853b 3856 123d 88c4 54bd 36a7 5a3c
00000210: 57d6 4abc 7876 f3bb 1030 49ba 90f7 59bd
00000220: aaa6 213d 239d 75bc 8e26 73bd 6097 5fbd
00000230: 949c 3ebd e8e1 2c3c 98f0 3e3c 5771 b33b
00000240: 3aa2 ff3c 1495 203d 5cae fc39 6e5f 21bd
00000250: 4e97 6ebc 54ae 4bbd ce31 e73c 381e d03c
00000260: b0c6 8fbc 00ec a4bc 1400 7d3b 603d fcbc
00000270: 3075 84ba ac24 1fbd 9f04 2ebd 08d3 27bd
00000280: 5188 53bd f153 9abd 69d4 1c3d 902e 9dbd
00000290: 721d 90bc 9449 adbb fe22 043c bb07 cc3c
000002a0: d60b bc3c 3082 fb3b 62f7 c5bd 4bfc 913c
000002b0: 98c0 16bc 2809 a5bc 306f 47bc 9a76 3bbd
000002c0: 11fb 083d 6c76 803d 80e5 c0bc 26e3 6d3c
000002d0: 5890 083d 818b 65bc ac80 963b 7f58 573d
000002e0: 0d42 423c 40db 88bb f221 293c 30aa de3b
000002f0: 90a5 07bb fcbc 003d 38ee 1abd 6aed ecbc
00000300: ff34 0abd fcee 2cbd 185a 8abc 2cb0 8fbd
00000310: 9865 38bc d40b babb a5e2 1fbd 5b0c f7bc
00000320: 5a13 06bd 3daa 4cbc 5777 71bd f98b f4bc
00000330: 3818 393d 28b3 3b3c b252 183d 804f 573b
00000340: e548 843d 300e ccbc 1ffc d6bc deb7 a53c
00000350: 6287 0f3d 12eb f63c 64d3 7fbc 4a32 573d
00000360: fc70 583c a2f9 123c 4580 8ebb 74d9 bdbc
00000370: 05f9 d23c e7b2 713d a4c2 383d 9a5f 51bc
00000380: 0e15 3f3c a00e bfba f919 7dbd e39e 623d
00000390: baaa 26bd 2967 20bd 9092 9f3a 5c3a 7fbd
000003a0: 90cc b1bb e82d 493c 62aa a5bc 458a 8dbd
000003b0: b88f 703c f5af a0bc 223e 5cbb 0e7c 89bd
000003c0: f0c9 f63c 52e2 bfbc edc2 f8bc 49ec bcbc
000003d0: 619c 66bc e638 05bc 9496 99bd 23f8 0ebc
000003e0: 9895 5fbd 0dea d1bc c840 1bbb f0a1 4e3c
000003f0: fc5b dfbc da98 503c 8ab9 303c 0092 a038
