data/gpt2-small/das_simple_train_ADJ_layer1.npy (npy, 3200 bytes, 1 tensors)

array f4 [768]
0	0x3dc68548	0.0969339
1	0xba3548e0	-0.0006915461
2	0x3c946ca2	0.018118206
3	0x3d05eec2	0.0326984
4	0xbcb8eff0	-0.022575349
5	0x3ce17ad2	0.027524386
6	0x3c071f28	0.008247174
7	0xbd1a4008	-0.03765872
8	0xbd17ae31	-0.037031356
9	0x3c65cd94	0.014026064
10	0x3d45016c	0.04809706
11	0x3c9f1831	0.019420715
12	0x3ca3f600	0.020014763
13	0x3c518a2d	0.012789291
14	0xbd86ef3d	-0.065886
15	0xbd379065	-0.04481544
16	0x3c916ada	0.017751146
17	0x3d21043e	0.039310686
18	0xbccc93ba	-0.024972785
19	0x3d324c6b	0.04352991
20	0x3cc10481	0.023561718
21	0xbc5d2c3f	-0.013499319
22	0xbd57db00	-0.05269909
23	0xbbe2e69d	-0.006924464
24	0x3c2023b0	0.009774134
25	0xbb504050	-0.0031776614
26	0xbd6de777	-0.05808207
27	0x3d9d62e1	0.07684875
28	0x3c80609c	0.015671067
29	0x3cec76fb	0.028865328
30	0x3c3a4772	0.011369573
31	0xbcefe41e	-0.02928358
32	0x3b2b35f0	0.0026124679
33	0x3cb90313	0.022584474
34	0x3d7047a8	0.058662087
35	0x3dcbbb6b	0.099478565
36	0xbcda0b98	-0.026616856
37	0x3ddc178c	0.10746679
38	0xbd0c3476	-0.03422972
39	0xbc83f664	-0.0161087
40	0xbc64e127	-0.013969696
41	0xbcf8d7a1	-0.030376257
42	0xbb08d719	-0.0020880161
43	0x3d280f46	0.04103019
44	0xbb0a55d0	-0.0021108277
45	0xbcbf715f	-0.02336949
46	0xbc7f0528	-0.015565194
47	0xbd20072e	-0.039069347
48	0x3d2d12b6	0.042254172
49	0x3d5e866c	0.054327413
50	0x3c00a4b0	0.007851765
51	0xbcba0614	-0.022707976
52	0x3c997300	0.018731594
53	0x3d9fb658	0.07798451
54	0xbd1cc81f	-0.038276788
55	0x3d255ddc	0.040372714
56	0xbc540e2e	-0.012942834
57	0x3dc43e36	0.09582178
58	0xbc03fcc2	-0.008055868
59	0x3d9de835	0.077103056
60	0xbd440ac0	-0.047861814
61	0x3b0651d0	0.0020495541
62	0xb8f66200	-0.00011748448
63	0xbd6e243b	-0.05814002
64	0xbbb9cbd4	-0.00567005
65	0x3afbeac0	0.0019219741
66	0x3c3ef136	0.011654189
67	0x3cb90aac	0.022588097
68	0x3d6095b9	0.054830287
69	0xbbd6a612	-0.006550559
70	0x3a5b5344	0.00083665946
71	0xbc2015a4	-0.0097707845
72	0x3c74943a	0.014927918
73	0x3c638650	0.013887003
74	0x3d0e1c90	0.034695208
75	0xbc8f59d8	-0.017498896
76	0xbd181499	-0.03712902
77	0x3d7c817c	0.061646923
78	0x3c45eb48	0.012080021
79	0x3cb0619c	0.021530919
80	0xbd8c005f	-0.06836008
81	0xbd1ab784	-0.03777267
82	0xbcbc5427	-0.022989346
83	0xbba974d4	-0.0051713977
84	0x3c88905e	0.016670402
85	0x3d1d89ea	0.038461603
86	0xbcda698b	-0.026661655
87	0x396f0680	0.00022795238
88	0xbd282211	-0.041048113
89	0x3ad1da5a	0.0016010508
90	0x3cd2ae9e	0.02571803
91	0xbc0ac8fd	-0.008470771
92	0xbd1f6afa	-0.03892038
93	0xbd567b5e	-0.052363746
94	0xba7ebb60	-0.0009717252
95	0x3c70dd0c	0.014701139
96	0x3c657a96	0.014006278
97	0xbd4c7ee7	-0.04992571
98	0x3d02e148	0.031953126
99	0x3c80d716	0.015727561
100	0x3c8f8b19	0.017522382
101	0xbd9feb8c	-0.07808599
102	0x3cb7461b	0.022372296
103	0x3c02b928	0.007978715
104	0x3cd8d2b1	0.026467653
105	0xbc8145ba	-0.015780319
106	0x3bb7d8c0	0.0056105554
107	0x3d363f34	0.04449387
108	0xbc97d289	-0.018533008
109	0x3b1a3ca8	0.002353469
110	0x3cf20834	0.029544927
111	0x3c7c3e68	0.015395738
112	0xbc44eddf	-0.0120196035
113	0x3cf0f17a	0.02941202
114	0x3dacd23e	0.08438538
115	0xbd4c3d76	-0.0498633
116	0x3d968b7a	0.07350822
117	0xbd90e43e	-0.07074784
118	0x3d24e4d5	0.040257294
119	0x3d24b00e	0.04020696
120	0xbd30b3db	-0.043140274
121	0x3a9bdfb8	0.0011892235
122	0xbd3d0f5a	-0.04615722
123	0x3d24ec5d	0.040264476
124	0xbcd3aa00	-0.025837898
125	0xbcdbb765	-0.026820848
126	0xbc8a91e0	-0.016915262
127	0xbd529fe0	-0.051422
128	0x3cac852e	0.021059599
129	0xbc9cf532	-0.019159887
130	0x3d2415cf	0.04005986
131	0xbcbf4445	-0.023347983
132	0xbb5f7f40	-0.0034102947
133	0x3d3767aa	0.044776596
134	0xbc8ac2d6	-0.016938608
135	0x3d2648cd	0.040596772
136	0xbd796329	-0.060885582
137	0xbb8a5824	-0.004221933
138	0xbc2f0021	-0.010681183
139	0x3d450b18	0.048106283
140	0x3d2b69bd	0.041848887
141	0xbd36980a	-0.04457859
142	0x3d0930a4	0.033493653
143	0xbabd68a0	-0.0014450736
144	0xbbe79cfc	-0.0070682745
145	0x3cbcf766	0.023067188
146	0xbaa45588	-0.0012537697
147	0x3cc0aeca	0.023520846
148	0x3b11ce94	0.0022248374
149	0x3d2ab5ed	0.041677404
150	0xbca3ba51	-0.019986304
151	0x3d3d1713	0.046164583
152	0xbcaba85d	-0.020954305
153	0x3b612934	0.0034356834
154	0xbd3c28ce	-0.045937352
155	0x3cf48dc6	0.02985276
156	0x3c73f178	0.014889114
157	0x3cdb7ee1	0.026793899
158	0x3c9253fe	0.017862316
159	0x3cb0c412	0.021577869
160	0x3d15b961	0.036553744
161	0x3d639a19	0.05556688
162	0xbd8bb194	-0.0682098
163	0x3d9b3dd9	0.07580156
164	0x3d31793e	0.043328516
165	0xbd2bdcf9	-0.041958783
166	0xbd695722	-0.056967862
167	0xbd15e984	-0.03659965
168	0xbcb1850c	-0.021669887
169	0x3bafdd14	0.0053669307
170	0x3da7cbf8	0.08193201
171	0x3d38bf07	0.045104053
172	0x3d1b9b5f	0.03798997
173	0x3cb42b99	0.021993445
174	0xbcca8fcb	-0.024726769
175	0x3c9c4b3a	0.01907884
176	0xbd369ae9	-0.044581328
177	0xb98cf480	-0.00026885048
178	0x3be860a0	0.0070915967
179	0xbcb2317f	-0.021752117
180	0xbd4f766e	-0.050650053
181	0xba8963ee	-0.0010482052
182	0x3cc995c4	0.024607547
183	0xbd0c79ec	-0.03429596
184	0xbd0916b3	-0.033468913
185	0x3cae5774	0.021281935
186	0xbc1ddedd	-0.009635654
187	0xbb54aaf8	-0.0032450538
188	0xbd26b969	-0.040704165
189	0xbcfc97a1	-0.030834021
190	0x3d097714	0.033560827
191	0x3c810bcf	0.015752701
192	0xbbc9a2b4	-0.006153429
193	0x3ccc8545	0.024965892
194	0x3d7b73ac	0.06138961
195	0x3d22463e	0.03961777
196	0xbcac83f9	-0.021059023
197	0x3b395b75	0.0028283272
198	0x3cea61e6	0.028611135
199	0x3d2d92b0	0.04237622
200	0x3ca0089b	0.019535353
201	0x3c4698f6	0.01212143
202	0x3c928590	0.017885953
203	0x3ce3f8b5	0.027828554
204	0xbd52d7de	-0.0514754
205	0x3c510b6e	0.012759073
206	0xbc9e664f	-0.019335894
207	0xbd7468fd	-0.059670437
208	0xbd84c154	-0.06482187
209	0xbcad5880	-0.021160364
210	0x3cb9815c	0.022644691
211	0xbc1f50f0	-0.009723887
212	0xbd595b6b	-0.0530657
213	0xbbc78942	-0.0060893605
214	0x3d0be204	0.034151092
215	0xbd243757	-0.04009184
216	0xbcf0675f	-0.029346166
217	0x3cd1f743	0.025630599
218	0x3a85c184	0.0010204767
219	0x3bf6187c	0.007510243
220	0x38848980	6.319862e-05
221	0xbd07d05a	-0.033157684
222	0xbd40aa7e	-0.047037594
223	0xba8613e0	-0.0010229312
224	0xbd120d1b	-0.03565703
225	0x3c9c69f0	0.019093484
226	0x3d879581	0.066203125
227	0xbcec335c	-0.028833084
228	0x3d021d7d	0.031766403
229	0x3ae290da	0.0017285601
230	0x3cc95abf	0.024579404
231	0x3cfabee4	0.030608602
232	0x3bdf0b87	0.006806794
233	0x3d3934c0	0.045216322
234	0xbd1ee8c4	-0.0387962
235	0x3d78b0c5	0.060715456
236	0x3cbf8010	0.023376495
237	0xbcaba608	-0.020953193
238	0xbbedd524	-0.0072580744
239	0x3d73d854	0.05953248
240	0xbc587b6c	-0.01321302
241	0x3cac84fd	0.021059508
242	0x3d159127	0.03651538
243	0x3c9b916e	0.018990245
244	0x3d08b306	0.033373855
245	0xbbf3e990	-0.0074436143
246	0x3d25d129	0.040482674
247	0xbb0fd178	-0.0021944921
248	0x3d2b043e	0.041752093
249	0x3d093247	0.033495214
250	0x3c7c1b5a	0.0153873805
251	0x3c8810b1	0.016609522
252	0x3a78abc0	0.0009486042
253	0xbd288b37	-0.04114839
254	0xbc540085	-0.012939577
255	0xbd902f15	-0.0704023
