data/gpt2-small/das_simple_train_ADJ_layer4.npy (npy, 3200 bytes, 1 tensors)

array f4 [768]
000000 30 52 5b 3d f2 21 23 3c 38 3c af 3c 44 01 d9 3c
       0.053545177 0.009956824 0.02139102 0.026489861
000010 ed 96 8b bd 38 22 5d bc b0 80 30 bb ed a2 fb bc
       -0.06815896 -0.013496928 -0.0026932172 -0.030717338
000020 98 29 16 bc 5c 3d f7 3c 4f fb 72 3d 98 6f 97 3c
       -0.00916519 0.030180626 0.059321698 0.01848583
000030 22 dd a5 bc ce bb 17 3c df cb 38 bd fe 87 0e bd
       -0.020247046 0.009261085 -0.0451163 -0.03479766
000040 20 39 ea b9 67 a8 ad 3c 81 af a1 bc 62 70 f0 3c
       -0.0004467452 0.021198465 -0.019737007 0.029350463
000050 82 6a a2 3c cf 25 17 3c 74 09 64 bd 64 b0 d0 3b
       0.019826178 0.009225323 -0.055673078 0.0063686837
000060 34 0b ef 3c 94 88 ce bb 0f 7e 8e bd f3 9c 8f 3d
       0.029180147 -0.0063029025 -0.069576375 0.070123576
000070 c8 9d ff 3c 74 eb 6d 3c 0a b8 1f bc b0 44 3e bd
       0.031203166 0.014521468 -0.009748468 -0.046452224
000080 89 a2 ce 3c 66 8d eb 3c ba be 8c 3d 05 5a f6 3d
       0.025223987 0.028753947 0.06872316 0.120288886
000090 4b b5 be bc f2 ea a5 3d 6a 0f e6 bc e1 98 13 bd
       -0.023279807 0.08101453 -0.028083522 -0.03603447
0000a0 ee 46 f7 bb 96 bf 01 bd 06 e9 0c bc 68 2c e5 3a
       -0.0075462973 -0.03167685 -0.008600479 0.0017484548
0000b0 8c 45 55 bc 29 9f c3 bc 0e ce da bc f5 e7 16 bd
       -0.01301707 -0.023879604 -0.026709583 -0.036842305
0000c0 7f 58 c4 3c e0 90 70 3d ce c4 48 bc f9 88 8f bc
       0.02396798 0.058731914 -0.012253953 -0.017521368
0000d0 20 e8 ec 3a 20 8d 46 3d 1a 21 15 bc b9 53 3d 3d
       0.001807455 0.04847443 -0.00910213 0.046222422
0000e0 c8 1b f2 bc e8 d0 7a 3d f0 a6 43 3c a9 85 04 3d
       -0.029554263 0.061234385 0.0119416565 0.03235403
0000f0 de 63 39 bd c0 d7 24 3c a3 ca 51 bc f9 aa 0c bd
       -0.045261256 0.010061204 -0.01280466 -0.03434274
000100 19 e0 f1 3d 56 48 67 bc fb f7 46 bc bc 5a b9 3c
       0.11810321 -0.014116367 -0.012144084 0.022626273
000110 ef d9 15 3d f8 9c a3 3c 7c c0 a3 3b 4e 23 10 3c
       0.03658479 0.01997231 0.004997311 0.00879748
000120 c8 91 61 bc d5 1c 02 bd 00 56 3f 39 c6 d9 00 bd
       -0.013767667 -0.031765778 0.00018247217 -0.031457685
000130 0b 51 da bc 64 0a 51 3d d2 35 3c 3c b2 4c bd 3c
       -0.026649972 0.0510353 0.011487441 0.02310786
000140 57 ec d6 bc ae b6 ca bc bb 65 95 bc c5 42 9d 3c
       -0.026235742 -0.024745312 -0.018236985 0.019196877
000150 b8 73 04 3b f6 e7 8a 3d 00 02 57 b9 83 ca 9c 3d
       0.0020210575 0.06782524 -0.00020504743 0.076558135
000160 dc b2 90 bc 54 1a 65 3b 64 57 bb 3c 00 62 28 38
       -0.017663412 0.003495832 0.02286882 4.014559e-05
000170 e0 6c 30 bc 10 8c ea bc b0 1f b8 3b 4e c3 f4 3c
       -0.010768145 -0.02863124 0.005619012 0.029878285
000180 b3 15 49 3c 89 c6 28 bd c8 c7 17 3d e0 80 c6 3c
       0.01227324 -0.041204963 0.03705576 0.024231374
000190 ba c2 a9 3c ba ef b0 bd 5b f2 b8 3c 08 49 d7 3b
       0.020722736 -0.08639474 0.022576502 0.0065699853
0001a0 f3 26 09 3d 34 fc 43 bc 4e 5f 2c bc 42 42 ea 3c
       0.03348441 -0.011961985 -0.010520769 0.028596047
0001b0 a9 cd 1e 3c f8 d5 b2 bc 51 a1 49 3c 94 df ff 3b
       0.009692588 -0.021830544 0.012306527 0.007808635
0001c0 15 87 08 bd 80 4c f1 3c b8 d8 9c 3d 30 63 8b bd
       -0.03333195 0.029455423 0.07658523 -0.06806028
0001d0 50 83 85 3d 86 96 75 bd 31 99 2a 3c 0e 9b fd 3b
       0.065191865 -0.059958003 0.0104125 0.007739431
0001e0 64 32 26 bd 6c 5b bd bb 04 cd 48 bd c5 ad 1a 3d
       -0.0405754 -0.0057787206 -0.049023643 0.037763376
0001f0 ae 3d 27 bc 58 bd d8 bb 28 18 c9 bc 8c 61 54 bd
       -0.010207577 -0.0066143684 -0.024547651 -0.05185084
000200 00 2c 50 3b 64 ea 20 bd 50 25 b7 3c 3a 59 45 bc
       0.0031764507 -0.039286032 0.02235666 -0.012045199
000210 58 09 a8 3c 4b 7f 38 3d ee ac c0 bc 87 5f 14 3d
       0.020512268 0.04504327 -0.02351996 0.036223914
000220 2b 76 b1 bd 36 21 16 3c 5e 4a c4 3c bc 27 54 bc
       -0.08665117 0.009163192 0.023961242 -0.012948927
000230 7d a9 87 3d 6e 96 dc bc 04 4e 90 3c 40 5e e6 bb
       0.06624124 -0.0269272 0.017615326 -0.0070302784
000240 80 97 3b 3b f6 bf 5b bb b0 82 01 bd 3c 01 0b 3d
       0.0028624237 -0.0033531166 -0.031618774 0.033936724
000250 ac da 34 bc 5a 87 be 3c 7a 36 87 bc 0c c7 2b 3c
       -0.011038464 0.0232579 -0.016505469 0.010484468
000260 58 d6 8f bc d0 a0 50 bb 00 d1 c7 ba 99 58 02 3d
       -0.017558262 -0.0031834133 -0.0015244782 0.031822775
000270 a4 be 1d 3c bb cd 88 3c 0a 9c 42 3d 4e b5 2e 3c
       0.009627972 0.016699662 0.04751209 0.010663344
000280 f0 79 02 3d 3a db 7c 3d aa 0d c4 bd 9d e0 92 3d
       0.03185457 0.06173251 -0.09572919 0.07171748
000290 48 d3 1e 3d d2 d9 eb bc 21 fb bd bc bc 38 05 bd
       0.038775712 -0.028790388 -0.023191037 -0.03252481
0002a0 2d 2d cd bc 92 ee 91 bc 44 08 80 3d 01 a8 ab 3c
       -0.025045956 -0.017813955 0.062515765 0.020954134
0002b0 44 ea 0b 3d 43 5f 40 3d 47 8e 19 bd 88 e3 da 3c
       0.03415896 0.04696585 -0.037489202 0.026719823
0002c0 5e 7d 01 bc dc fd 7a 3b c9 a7 24 3d 24 9c b0 bc
       -0.007903425 0.0038298285 0.040199075 -0.021558829
0002d0 b0 37 42 bd f4 16 d9 3b fd 83 52 3c 18 9e 46 bd
       -0.04741639 0.0066250507 0.012848851 -0.048490614
0002e0 c2 df 68 bc be 04 e9 3c a6 36 4d bd d6 2e be bc
       -0.014213504 0.028444644 -0.050100945 -0.023215692
0002f0 83 fd c2 bc f4 04 ef bc 3a 7e 2b 3d e0 a2 97 3c
       -0.023802524 -0.029177167 0.041868426 0.018510282
000300 04 e2 14 bc 92 58 80 3c 06 95 75 3d c9 ee 6b 3d
       -0.009087089 0.015667234 0.059956573 0.05760077
000310 51 63 f2 bb 41 72 a2 bc f4 e1 64 3d 17 96 31 3d
       -0.0073970933 -0.019829871 0.05587955 0.043356027
000320 76 7c 57 3c 97 7c 99 3b 26 cd 46 3c 3e c6 01 3d
       0.013152232 0.0046840417 0.012133872 0.0316832
000330 bc 40 76 bc 50 cb f4 bc a9 d0 2a bd 3f 9c 93 bc
       -0.015030082 -0.029882103 -0.0417029 -0.01801884
000340 e4 d8 8e bd 28 cf 83 bc c8 2c d1 3b e8 ad 96 3c
       -0.06974962 -0.01608999 0.006383512 0.018393472
000350 72 48 f8 bc 00 4c 31 bc 86 9f 88 3c 09 96 81 bc
       -0.030307982 -0.0108213425 0.01667763 -0.015818613
000360 2f 20 ab bc 14 d6 f4 3b 5f f2 06 bd a0 c0 68 3b
       -0.02088937 0.007471809 -0.032945987 0.0035515204
000370 03 ca 74 3c b0 13 d0 bc c2 8a 1f bd 90 e4 1a 3c
       0.0149407415 -0.025400013 -0.03895069 0.009453908
000380 04 a4 08 bd 50 d9 e0 ba 84 5d 53 3d 97 7a 26 bd
       -0.033359542 -0.0017154608 0.051602855 -0.040644255
000390 36 60 1c 3d 05 a8 aa 3c 0a ab da 3c bf 99 2a 3d
       0.03817769 0.020832071 0.026692886 0.04165053
0003a0 47 a0 94 bc 78 2d 5c bc 7a 8e 0b bd 27 16 71 3d
       -0.018142832 -0.013438575 -0.034071423 0.058859017
0003b0 b6 ef e0 3c c0 db 4e bb dc ac e3 bb 20 ca 59 3d
       0.027458053 -0.0031564087 -0.0069480967 0.053171277
0003c0 4a ca 82 bc 16 29 2f 3c c0 e8 3f 3d 52 77 69 3c
       -0.0159656 0.010690948 0.046852827 0.01424964
0003d0 a1 3b 65 3d 70 dd 58 bb e0 0c 4e 3d 80 e9 4d b9
       0.05596507 -0.0033090971 0.050305247 -0.00019637309
0003e0 65 a1 17 3d 09 d6 0b 3d e1 89 e4 bb 09 d6 3b 3c
       0.037019152 0.034139667 -0.0069744443 0.011464604
0003f0 d2 e2 00 3d 17 fe e8 bc 50 de d8 bc 2a 48 53 bc
       0.031466313 -0.028441472 -0.026473194 -0.012895623
