data/gpt2-small/das_simple_train_ADJ_layer5.npy (npy, 3200 bytes, 1 tensors)

array f4 [768]
0	0xbc155850	-0.009115294
1	0xbd0768ee	-0.033059053
2	0x3ccf68b7	0.025318487
3	0x3c8567a2	0.016284768
4	0xbd49e08a	-0.049286403
5	0xbc7f38c7	-0.015577502
6	0xbcbaa688	-0.022784486
7	0xbcb1c589	-0.021700637
8	0xbcef5a02	-0.029217724
9	0x3d1f41ee	0.038881235
10	0x3d28a7e7	0.04117575
11	0x3bfb8710	0.007676013
12	0x3b69e7a9	0.0035691059
13	0xbb9e0b9e	-0.004823162
14	0xbc7dbf3e	-0.01548749
15	0xbd0ef86a	-0.034904875
16	0xbc358682	-0.011079432
17	0x3c798e72	0.0152317155
18	0xbc91f43e	-0.017816659
19	0x3cb1a8b4	0.02168689
20	0x3d83d5fe	0.064373
21	0xbcf9b6f7	-0.030482752
22	0xbd08dcd7	-0.033413734
23	0x3c223a89	0.009901651
24	0x3c34bbfc	0.011031147
25	0xbcac96ac	-0.02106794
26	0xbdae5460	-0.08512187
27	0x3d5bfa7a	0.05370567
28	0x3d53dd9d	0.05172502
29	0x3b2d9f18	0.0026492532
30	0x3c8b896f	0.017033307
31	0xbc9c1b9a	-0.01905613
32	0x3cf5d366	0.03000803
33	0x3d1eaa8b	0.03873686
34	0x3d88fb80	0.06688595
35	0x3d94393f	0.07237481
36	0xbd494105	-0.049134273
37	0x3d9c48d4	0.07631078
38	0xbcaa204e	-0.020767357
39	0xbd1d6806	-0.038429283
40	0xbcc30a46	-0.02380861
41	0xbd0a43c8	-0.033756047
42	0x3bfb47ce	0.007668472
43	0xbace60d0	-0.0015745405
44	0x396e2c80	0.00022714026
45	0xbc8b0c9b	-0.016973784
46	0xbce2a087	-0.027664436
47	0xbc18b806	-0.009321218
48	0xbccfc81e	-0.025363978
49	0x3d844884	0.06459144
50	0xbc11384a	-0.008863518
51	0xbc73dcd0	-0.014884189
52	0x3d297773	0.04137368
53	0x3ce66f00	0.0281291
54	0xba6de7a0	-0.00090753473
55	0x3ce47c91	0.02789143
56	0x3cd815ff	0.026377676
57	0x3d6dfb1f	0.058100816
58	0x3d817b0d	0.06322298
59	0x3d10e297	0.035372343
60	0xbd46e017	-0.048553552
61	0xbc0fd208	-0.008778103
62	0xbc03dd08	-0.008048303
63	0xbc434926	-0.011919295
64	0xbaec3acc	-0.0018022894
65	0xbc5f3815	-0.013624211
66	0xbbd5be70	-0.006522946
67	0x3ca3d2ac	0.019997917
68	0x3d8a1a27	0.067432694
69	0x3c905794	0.017619886
70	0xbc742971	-0.0149024585
71	0xbb9ecd34	-0.0048462395
72	0x3a9c4698	0.0011922894
73	0xbbee29f7	-0.007268186
74	0x3c9c3427	0.019067837
75	0xbc39adb4	-0.011332918
76	0xbd4986d8	-0.049200863
77	0x3d4227d8	0.04740128
78	0x3b18f770	0.0023340844
79	0xbc9172b3	-0.017754888
80	0xbd0b3950	-0.033990204
81	0xbcedd59e	-0.029032525
82	0x3bb6b7a0	0.005576089
83	0x3c55f7b0	0.013059542
84	0x3c2dda88	0.010611184
85	0x3dccdf86	0.10003571
86	0xbcfde53c	-0.030993097
87	0xbcbce437	-0.02305804
88	0xbca3c0ad	-0.019989336
89	0x3c58d9d7	0.013235531
90	0x3d1304ba	0.03589318
91	0xbca83d66	-0.02053709
92	0xbc9178e9	-0.01775785
93	0xbd155235	-0.03645535
94	0xbb045b80	-0.002019614
95	0x3d446722	0.047949918
96	0xbcdc401f	-0.026886044
97	0xbcacbd5c	-0.021086387
98	0x3cbc74d3	0.023004925
99	0x3d14c37e	0.03631925
100	0x3d496422	0.04916776
101	0xbdac6e9b	-0.08419534
102	0x3d75d1b0	0.060014427
103	0x3c9e3954	0.019314446
104	0x3cc2c23a	0.023774255
105	0x3c6841f6	0.014175883
106	0x3cc77931	0.02434978
107	0x3ccc5c7d	0.024946446
108	0xbcd524a3	-0.026018446
109	0xbb22baf4	-0.002483067
110	0xbc85db9b	-0.016340068
111	0xbc47cf2c	-0.01219539
112	0xbd00ccfd	-0.031445492
113	0x3d0469d3	0.032327484
114	0x3dbc3eeb	0.09191688
115	0xbcaaf6cc	-0.020869635
116	0x3d47f6be	0.048819296
117	0xbd3f3d5c	-0.046689376
118	0xbab2b030	-0.001363283
119	0xbc55e01f	-0.013053923
120	0xbcd341e3	-0.025788253
121	0xbcca25ba	-0.024676193
122	0xbd3423f9	-0.04397962
123	0x3ce44ea4	0.02786953
124	0xbc7e6c8b	-0.015528808
125	0x3cac3006	0.021018993
126	0xbcca3ee6	-0.024688195
127	0xbd7e9a06	-0.062158607
128	0xbb3d68f4	-0.0028901668
129	0xbc2d6225	-0.0105824815
130	0x3ce295fc	0.027659409
131	0xbbd6f573	-0.0065600215
132	0x3d86f9ab	0.06590589
133	0x3cd50506	0.026003372
134	0x3c7770e5	0.0151026
135	0x3d159fb0	0.036529243
136	0xbd929e63	-0.07159116
137	0x3bffa498	0.0078016035
138	0x3a59839a	0.0008297503
139	0xbb957c34	-0.0045619253
140	0x3d8e9e02	0.06963731
141	0xbcdadc70	-0.02671644
142	0x3a1683a0	0.00057416596
143	0xbc4c3ebc	-0.012466129
144	0xbcbde0c4	-0.023178466
145	0xbd0df9da	-0.034662105
146	0xbd03ccf5	-0.032177884
147	0x3d0b0cf6	0.033947907
148	0x3b0fc488	0.002193721
149	0x3d14f3f8	0.03636548
150	0xbccd220c	-0.025040649
151	0x3bb187e8	0.0054178126
152	0xbc8886cc	-0.016665839
153	0x3cd8503c	0.026405446
154	0xbcba7e2c	-0.022765242
155	0x3cf43734	0.02981148
156	0x3d2ac20a	0.041688956
157	0x3c43d3f9	0.011952394
158	0x3d1f925a	0.03895793
159	0x3c7982c6	0.015228933
160	0x3c6a18d9	0.014288151
161	0x3d7a8879	0.061165307
162	0xbd9756a5	-0.07389573
163	0x3d910956	0.07081859
164	0x3ce9438c	0.028474592
165	0xbd3a901f	-0.0455476
166	0xbccdc389	-0.025117652
167	0xbc80aacd	-0.015706444
168	0xbce4af4a	-0.027915616
169	0x3bb6abbc	0.0055746716
170	0x3d5f0fd4	0.054458454
171	0x3c8003e0	0.015626848
172	0x3d0486ea	0.032355227
173	0x3cdeb2bc	0.027184837
174	0xbbab4ee8	-0.005227912
175	0x3ce84972	0.028355334
176	0xbd6438b8	-0.055718154
177	0xbcf91922	-0.030407492
178	0x3c137140	0.008999169
179	0xbca31f61	-0.019912424
180	0xbd137fd2	-0.03601057
181	0xbd2b3f00	-0.04180813
182	0x3ceb593e	0.028729077
183	0xbcd0581c	-0.025432639
184	0xbca0e158	-0.019638702
185	0xbbd76d8c	-0.0065743383
186	0xbc95c8fa	-0.01828431
187	0x3c46453c	0.012101468
188	0xbbe4875d	-0.0069741444
189	0xbcb79036	-0.022407632
190	0x3d633d06	0.05547812
191	0x3d197776	0.037467442
192	0xbb8b5976	-0.004252608
193	0x3bae941c	0.0053277146
194	0x3d05149c	0.032490358
195	0x3da51b89	0.080618925
196	0x3ccb6c9a	0.024832059
197	0xbd2d733a	-0.042346217
198	0x3d15fc5c	0.03661762
199	0x3cfcba5a	0.030850578
200	0x3cf1af09	0.029502409
201	0x3c6e39ee	0.014540179
202	0xbcac2285	-0.021012554
203	0x3d0dce2b	0.034620445
204	0xbd5da652	-0.054113694
205	0xbca28744	-0.01983989
206	0xbd02959a	-0.031880952
207	0xbd4ca5ce	-0.04996281
208	0xbd9f5df0	-0.07781589
209	0xbc282e8e	-0.010265006
210	0x3c5009bc	0.012697633
211	0x3c060e40	0.008182108
212	0xbcfd3a18	-0.03091149
213	0x3b403190	0.0029326417
214	0x3d120cc8	0.03565672
215	0xbc55b407	-0.01304341
216	0x3c694a78	0.014238946
217	0x3d21fe26	0.039549015
218	0xbc9e7140	-0.019341111
219	0x3c55ef1e	0.013057498
220	0x3ca3f44b	0.020013949
221	0xbd150e1d	-0.036390413
222	0xbc5ade90	-0.013358727
223	0x3c8785d1	0.0165433
224	0xbd2dcf30	-0.042433918
225	0x3c836f12	0.016044173
226	0x3d61d408	0.05513385
227	0xbcbf53a8	-0.02335532
228	0x3d68dff2	0.056854196
229	0x3ccfd728	0.02537115
230	0x3aea5a1a	0.0017879636
231	0x3d67c754	0.05658658
232	0xbd2bd559	-0.04195151
233	0xbc9f6a14	-0.019459762
234	0xbcb147ca	-0.021640677
235	0x3d1e45fb	0.038640957
236	0x3d593299	0.05302677
237	0x3cf5c790	0.030002385
238	0xbb2688b4	-0.0025411071
239	0x3db056c8	0.08610302
240	0x3c2d39ec	0.010572892
241	0x39e0daa0	0.00042887498
242	0x3d914c97	0.070946865
243	0x3d3c84dc	0.046025142
244	0x3d52b6a1	0.0514437
245	0x3c96dcf4	0.018415906
246	0x3d3098e7	0.04311457
247	0x3c1a8807	0.0094318455
248	0x3d9ab176	0.07553379
249	0x3d55f53f	0.052235838
250	0x3c9b7385	0.018975982
251	0xbbfb3f40	-0.007667452
252	0x3cf46173	0.029831624
253	0xbd2ee80e	-0.042701773
254	0xbd242785	-0.04007675
255	0xbcff2103	-0.03114367
