data/gpt2-small/das_simple_train_ADJ_layer0.npy (npy, 3200 bytes, 1 tensors)

array f4 [768]
000000 14 cb 05 3d 53 3f ef 3c 46 b5 00 3d 69 89 79 3d
       0.032664374 0.029205 0.031422876 0.06092206
000010 2c fd 87 bc 11 d2 86 bd 08 f1 0f bc b5 65 ea bc
       -0.016600214 -0.06583036 -0.008785494 -0.02861295
000020 aa 7c 45 3c 2c 54 8d 3c 48 47 5b bc 98 1d 13 3d
       0.012053648 0.01725205 -0.013383694 0.035916895
000030 69 62 e5 3b b2 b7 22 bd f2 c4 1b bd 85 a5 f8 bc
       0.007000257 -0.039725967 -0.03802962 -0.030352363
000040 3e 39 f7 3b 5c ac 81 3b 65 26 d1 3b f8 3c e9 3c
       0.0075446656 0.0039573144 0.006382751 0.028471455
000050 ce dd 41 3d 1b 24 f8 3c dd 6a 35 bd 28 70 69 bc
       0.04733067 0.030290654 -0.044291366 -0.014247932
000060 fb 92 e9 3c 69 aa 04 3d 92 be 52 3d 76 23 1b 3d
       0.028512469 0.03238908 0.051451273 0.037875615
000070 e4 f9 88 3d 4b 89 c6 3c 77 3b e9 3b bb 61 f7 bc
       0.06688288 0.024235388 0.0071176845 -0.030197969
000080 e0 1c 9b bb 8a ab ce 3c 1c 07 bc 3d fe 0c 9a 3c
       -0.004733667 0.02522828 0.091810435 0.018805023
000090 ba 94 80 bb 63 65 d1 3d 3d a1 a5 bc 8a ec a0 bd
       -0.0039239796 0.10224416 -0.020218486 -0.07857616
0000a0 a4 39 96 3d fe 99 f4 bb 04 44 9c 3d 54 91 93 3d
       0.07335213 -0.0074646464 0.076301605 0.072054535
0000b0 e5 36 6e 3c 90 ef 2b bb 14 58 03 bd 6d c3 9f 3c
       0.014539455 -0.002623532 -0.03206642 0.019502366
0000c0 1e f6 f7 3c 60 7e de ba ac 56 14 bc f0 28 fc ba
       0.030268725 -0.0016974919 -0.009053867 -0.0019238275
0000d0 e2 d7 db bb 55 98 d1 3d ae 34 10 bd d0 72 1d ba
       -0.006709085 0.10234133 -0.03520649 -0.0006006183
0000e0 dd 70 1c bc f0 3f 6c 3c 49 2d 07 3d e2 5c 76 3c
       -0.009548393 0.014419541 0.03300217 0.015036793
0000f0 d6 91 cc bc 48 8e 31 3c d0 8d 01 bb d9 65 99 3c
       -0.024971884 0.010837145 -0.0019768365 0.018725323
000100 07 ea 00 3d be d9 8b 3c f4 8e f8 bb e0 b1 81 3c
       0.031473186 0.017071601 -0.0075854007 0.015831888
000110 60 6e 97 39 cb 28 77 bd b1 1d 46 3d 52 08 26 bd
       0.000288832 -0.060341638 0.04836816 -0.04053528
000120 c0 3d da 3c 5e fb 09 3c 64 d9 27 3c cf 08 fc bc
       0.026640773 0.008421747 0.010244701 -0.030765919
000130 c9 87 ae bc 80 74 5a 3a 96 bc b4 3c a4 3b af bc
       -0.021304982 0.00083334 0.022062581 -0.021390744
000140 8c f3 cb bc 99 35 fb bc 54 ae 62 bc d2 8c ec bc
       -0.024896406 -0.030665206 -0.013835508 -0.028875742
000150 d6 da e3 3c b3 6b 05 bd 64 38 cc bb ac 10 16 3d
       0.02781431 -0.032573413 -0.006232308 0.036636993
000160 2a fd 1d 3d f0 54 a5 3a b0 01 1c bc fe 7c f6 3b
       0.038571514 0.0012613814 -0.009521887 0.0075222244
000170 62 d8 9d bc 42 a5 a2 bb 92 56 db bc 2b 8d 17 3d
       -0.019268218 -0.004963548 -0.026774678 0.036999863
000180 d6 95 8c 3c 8a ab 1d bc 53 5b 5a 3c dc 90 10 3c
       0.017161291 -0.009623418 0.013327437 0.0088236
000190 35 17 3a 3d ce 42 c1 3c 1e f4 2b bc 7b 4f a9 3c
       0.04543229 0.023591425 -0.010495214 0.020667782
0001a0 bc 91 85 bb f6 04 8e bd c4 b3 57 3d b8 f6 10 3b
       -0.004076211 -0.0693454 0.052661672 0.0022119712
0001b0 f4 e1 02 bd a4 af 88 3c bc 78 41 3d 5c d4 98 bc
       -0.031953767 0.016685314 0.047234282 -0.018655948
0001c0 3a 98 30 bd 36 6c 1b bd 03 15 ff 3d b6 c3 c7 ba
       -0.043113925 -0.037944995 0.124551795 -0.0015240822
0001d0 3c 30 e6 bb 80 3c ed ba a9 18 0e 3c 22 1e 35 3d
       -0.007024793 -0.0018099695 0.008672872 0.04421819
0001e0 8e a2 40 bd 74 62 f7 3b 40 0b 50 bd db 43 78 3c
       -0.047030024 0.0075495783 -0.05079198 0.015152897
0001f0 d8 f1 bb bd 1c aa f4 bb 7a e4 2e bd 1a d8 3d 3d
       -0.091769874 -0.0074665677 -0.04269836 0.04634867
000200 9a a7 e2 bc 00 f3 be 3c 40 a5 f8 39 56 ef 35 3d
       -0.02766781 0.02330923 0.00047425367 0.0444177
000210 34 e7 c0 3c ae d9 4a bd 24 59 ac bb a7 b2 d9 bb
       0.023547746 -0.049524 -0.00525965 -0.0066436115
000220 61 f6 8f bc 2d b7 24 bc 38 c5 cb bd 90 62 6e 3b
       -0.017573537 -0.010053438 -0.09949726 0.0036374666
000230 92 d0 c1 3d e1 ce 6c 3d ea 56 fa 3c 19 82 d8 3c
       0.0946361 0.057814483 0.030559022 0.026429223
000240 90 4f 09 3b b0 11 06 bb 9f 08 da 3c 7e 25 f1 bc
       0.0020951964 -0.002045732 0.026615439 -0.029436823
000250 f0 1e c8 3b aa b6 9e bc 38 44 a8 3d 1b cf dd 3c
       0.0061072037 -0.01937421 0.08216137 0.027076295
000260 79 a8 1e 3d 38 7f 01 3b c1 5c 27 3c 97 ea 05 bd
       0.038734887 0.0019759666 0.010214985 -0.032694425
000270 a8 cc be 3c 3e f4 87 3b 80 29 5c bd 32 68 e8 bc
       0.023290947 0.004148989 -0.053750515 -0.028369997
000280 ee f4 01 3d 28 6f 97 3c 76 ca 21 bb ea 10 bb bc
       0.031727724 0.01848562 -0.0024687327 -0.022835214
000290 60 6e 76 3d e0 0b c0 ba df b0 83 bc e1 2c 8d bc
       0.060163856 -0.0014651977 -0.01607555 -0.017233314
0002a0 1f df ae bc d0 2d de 3c 38 c2 0c 3d f4 81 df bc
       -0.021346627 0.027121454 0.03436491 -0.027283646
0002b0 42 70 68 3d 0f 96 0d bc 12 d3 2c 3d b6 52 3b 3d
       0.056747682 -0.008641734 0.04219348 0.045733176
0002c0 88 b0 6b ba 05 1b 8b bd 00 f9 0d 3c 66 6e 16 bd
       -0.0008990844 -0.06792263 0.008665323 -0.036726378
0002d0 68 ee 48 bd 59 92 63 3d ad 2d 8f bc 25 9e 31 bd
       -0.049055487 0.05555949 -0.017477835 -0.04336371
0002e0 65 ce 96 bc a0 51 12 3a d7 c0 8e bd ba 66 25 3c
       -0.018408963 0.0005581621 -0.06970375 0.010095293
0002f0 c8 f5 7d 3b f6 12 17 3d fa 91 b9 bc 13 29 49 3c
       0.0038751233 0.036883317 -0.022652615 0.012277859
000300 44 a3 c3 3c e4 5c 49 bd 18 64 22 3c e4 d7 01 bc
       0.023881562 -0.049160853 0.0099115595 -0.0079250075
000310 06 d9 16 bd 7e fe 3a bd e0 a5 b1 3b 0c 9b 28 3c
       -0.036828063 -0.04565286 0.005421385 0.010290872
000320 41 b9 47 bd 9a 28 23 bd aa f9 ff bc fa 08 13 bc
       -0.048760656 -0.039833643 -0.031246979 -0.008974308
000330 5b 32 08 bd 47 5d 89 bd cc a9 53 3d b7 47 4c 3d
       -0.033251148 -0.06707244 0.051675603 0.04987308
000340 10 fd 2c bd 6f 62 07 3d b0 c0 ac 3b 49 a3 08 bd
       -0.042233527 0.033052858 0.0052719936 -0.033358846
000350 56 df 63 bc 30 fb a3 bb eb 34 51 3c b0 11 ad ba
       -0.013908228 -0.005004309 0.012768964 -0.0013204124
000360 f4 0a 43 bd 2d 46 a1 3c 94 7c bf 3b 04 48 ae bc
       -0.047617868 0.019686783 0.0058437083 -0.021274574
000370 d2 3c 50 bd 08 ca 1c bd ec 0a 02 bd 26 47 8c bc
       -0.050839253 -0.03827861 -0.031748697 -0.01712377
000380 fc e4 b1 bc 51 65 d0 3c 32 cd d3 3c 89 0d b9 3c
       -0.021715634 0.025438936 0.02585468 0.022589462
000390 8a 7b 90 3c 5a bf 50 3c c1 63 82 bd 85 69 f9 3c
       0.017637033 0.012740934 -0.06366683 0.030445823
0003a0 68 e5 9f 3c 55 e3 16 3d 12 74 13 bd 90 db 3e 3d
       0.01951857 0.036837894 -0.035999365 0.04659611
0003b0 0d 40 87 3c 49 0e 4d 3d c9 ff a3 3c 50 79 51 bc
       0.016510034 0.05006245 0.020019429 -0.012785271
0003c0 34 fe 12 bd 6c 3f 51 3b 51 cb 55 bc bc 7a 88 3d
       -0.03588696 0.0031928672 -0.013048963 0.06664035
0003d0 28 b7 c7 3d a0 87 86 bc f4 69 31 3d e6 8a ae bc
       0.09751731 -0.016422093 0.043313935 -0.021306466
0003e0 e4 de 19 bc db c9 8e 3b b4 d5 01 3b d5 39 91 3c
       -0.00939152 0.004357559 0.0019811215 0.017727772
0003f0 8c 01 5d 3c 87 c6 9d bc 0a 79 ac bc 78 0d 3b bb
       0.013489138 -0.019259704 -0.02105381 -0.0028541964
