data/gpt2-small/das_simple_train_ADJ_layer2.npy (npy, 3200 bytes, 1 tensors)

array f4 [768]
000000 68 90 c3 3d 2b d3 a8 bc 3a af 2e 3c 97 19 22 3d
       0.09549028 -0.020608505 0.010661894 0.039575186
000010 1e 29 04 bd 6a 79 2c 3b e1 f3 94 3c 1a 25 25 bd
       -0.032265775 0.0026317486 0.018182697 -0.040318586
000020 83 4f 2a bd 31 d6 06 3b 77 c3 69 3d de 12 dd 3c
       -0.041579735 0.0020574445 0.057071175 0.026986536
000030 ce b4 ea 3b 46 88 5c 3c 0d 2b 80 bd 28 8a 87 bc
       0.007162667 0.0134602245 -0.06258211 -0.01654537
000040 34 75 87 3c 0a e5 83 3c 30 17 99 bc 82 48 01 3d
       0.016535379 0.016100425 -0.018687814 0.03156329
000050 23 79 51 3d 7b 04 9c bc 5a 27 3a bd 4f c5 b6 bb
       0.051140916 -0.019045105 -0.045447685 -0.0055777202
000060 86 21 a3 3c f0 f9 6d 3b 7a 5d 80 bd 89 a7 69 3d
       0.019913446 0.0036312304 -0.06267829 0.05704454
000070 fa 72 ce 3c d0 2c 98 3c c5 53 77 3c 65 45 3b bd
       0.02520131 0.018576056 0.015095656 -0.045720477
000080 16 94 37 3c 32 eb fe 3c 79 a7 73 3d 2d 51 ca 3d
       0.01120474 0.03111801 0.059485886 0.09878764
000090 b0 9b f2 bb 60 7c a1 3d 85 79 39 bc f8 83 ca bc
       -0.0074038133 0.07885051 -0.011320476 -0.02472113
0000a0 72 7a 1e bb 62 b3 91 bc b4 d4 a8 3b 78 54 c3 3c
       -0.002418187 -0.017785732 0.0051523093 0.023843989
0000b0 f2 c2 32 bc 28 e7 10 bd 18 ff 68 bb 84 35 44 bd
       -0.010910736 -0.035376698 -0.0035552438 -0.0479026
0000c0 bb c2 13 3d 54 87 58 3d 3c 67 aa 3b 01 c2 f6 bc
       0.03607438 0.052863434 0.005200295 -0.030121805
0000d0 02 31 62 3b dd ff 79 3d 92 f1 a8 bc fc c1 52 3d
       0.0034514074 0.061035026 -0.020623002 0.05145453
0000e0 f1 a5 cf bc 15 56 b3 3d bf 1b 9e 3c ee 0f af 3d
       -0.025347682 0.08756653 0.01930034 0.0854796
0000f0 bf a7 20 bd 8a 4a 75 3c 20 b1 07 3c d3 0a 44 bd
       -0.039222475 0.014971385 0.008281976 -0.047861885
000100 25 60 80 bb 8a 36 13 bd c0 9a 7e bb 8a a0 c5 3b
       -0.0039177113 -0.035940684 -0.0038849562 0.0060311006
000110 41 2c 74 3d 2b e8 a1 bc 48 30 bb 3b 75 c1 9f 3c
       0.059612516 -0.019764027 0.0057125427 0.019501427
000120 6c 62 79 3c a0 e3 f8 b9 9a b2 86 bc f8 ee 4b bc
       0.0152212195 -0.0004747184 -0.016442586 -0.012447111
000130 2b a9 da bc 8f c7 ad 3c 88 37 bc 3b 39 15 a1 3c
       -0.026691994 0.021213321 0.0057439245 0.01966344
000140 46 f0 9a bd fd a5 53 bd 38 9c a5 bc a8 10 81 bb
       -0.0756536 -0.05167197 -0.020216092 -0.003938753
000150 ee b5 a9 3c fa 44 66 3c e4 86 aa bb 0c 98 e2 3b
       0.020716634 0.014054531 -0.0052040685 0.006915098
000160 68 eb e9 bc e1 79 c4 3c 7e d2 f5 3c c8 4b 43 bb
       -0.028554633 0.023983898 0.030007597 -0.0029799808
000170 64 84 d4 bc 46 60 ed bc 00 f6 a2 38 b0 12 38 3d
       -0.025942035 -0.02897657 7.770583e-05 0.044939697
000180 9e 24 d2 3c 10 63 4c bd 98 e3 78 3b 00 b8 5d ba
       0.025652226 -0.04989916 0.0037977453 -0.0008457899
000190 b0 46 89 3c 82 d1 b8 bd 54 02 f4 3c a1 43 96 3c
       0.01675734 -0.090243354 0.029786266 0.018342795
0001a0 5a a1 19 3d 5a d0 04 bc a4 ef 18 3c a8 b4 2c 3d
       0.037507392 -0.0081063155 0.0093344785 0.042164475
0001b0 50 c8 26 bc 80 13 a8 ba ae d0 eb 3c 44 01 99 3c
       -0.010179594 -0.0012823194 0.02878603 0.018677361
0001c0 e8 93 9e 3a 46 1b 0f 3d 87 19 b5 3d 60 02 69 bd
       0.0012098523 0.03493812 0.088427596 -0.05688703
0001d0 ab 1b 83 3d 72 c1 85 bd ba f5 36 3d c3 9a 90 3b
       0.064017616 -0.065310374 0.044667937 0.0044129803
0001e0 28 77 96 bd 12 31 52 3c 11 16 61 bd 16 7c 29 3d
       -0.07346946 0.012829082 -0.054952685 0.041378103
0001f0 f2 e4 a7 bc 93 46 a7 bc 28 36 8f bb 0a f8 c5 bc
       -0.020494912 -0.020419395 -0.0043704696 -0.024166126
000200 e8 3e 0b bb f8 85 4e bc a3 85 ca 3c 84 95 05 bd
       -0.0021247212 -0.012605183 0.024721926 -0.032613292
000210 24 e0 58 3c 8b e4 3f 3d 03 ea 77 bc 46 6e 27 3d
       0.013237033 0.046848815 -0.015131476 0.04087665
000220 16 46 a9 bd 50 1c d8 3a 0b 2e ec 3c 9f 54 19 3d
       -0.08265321 0.001648793 0.028830549 0.037434217
000230 e3 e2 86 3d 86 3b 53 bd 00 1f 6e 3a 8c 7c 7d bc
       0.06586244 -0.051570438 0.0009083599 -0.015471589
000240 c4 f5 82 3b fa 51 2a 3c d1 1e 4b bc e3 6d 06 3d
       0.0039965827 0.010395521 -0.012397484 0.03281964
000250 f8 17 61 bc e4 c1 89 3c bd 1c 98 bc 3b 92 d1 3c
       -0.013738625 0.016816087 -0.018568391 0.025582423
000260 f6 7f 8f bc 6b b2 bb 3b 9c 34 22 bd e4 86 f0 3c
       -0.017517071 0.005728056 -0.039600953 0.029361196
000270 f9 0f 7c 3c 1d 99 85 3c 62 66 ed 3c 50 23 13 3c
       0.015384668 0.016308362 0.028979484 0.008980587
000280 cc 70 16 3d 6a 2c 4d 3d c8 85 a8 bd 8a 84 af 3d
       0.036728665 0.050091185 -0.08228642 0.08570202
000290 d6 9f 25 3d 88 e1 2e bb 49 97 5c bd 94 ea 20 bd
       0.040435635 -0.002668472 -0.053855214 -0.03928621
0002a0 79 51 02 bd ec f9 85 bc 20 89 85 3d bf 20 ce 3c
       -0.03181598 -0.016354524 0.06520295 0.025162099
0002b0 6c 59 2f 3d 39 0f 8f 3c 08 3d b9 bc 64 1e 01 3d
       0.04280989 0.017463313 -0.02261211 0.031523123
0002c0 fb fb 1f bd 88 69 62 bb 6c 14 b9 bb e4 2e f7 bc
       -0.039058667 -0.0034547765 -0.0056481864 -0.030173726
0002d0 0f 01 22 bd 10 31 bf bb 3a a4 e3 3c 1c 9a 7f bd
       -0.03955179 -0.005834706 0.02778827 -0.06240283
0002e0 5b e4 8d bc 8d 21 2c 3d 7b d2 45 bc 70 95 c1 3b
       -0.017320802 0.042024184 -0.012074108 0.005907707
0002f0 62 98 ed bc cf 3c 9f bc 11 cc b9 3c fe c1 90 3c
       -0.029003326 -0.019438175 0.022680314 0.017670628
000300 27 be c5 bb 01 5f 08 3d 8e 20 83 3d 3d e2 20 3d
       -0.006034631 0.033293728 0.06402694 0.039278258
000310 dd 2e 2f bd 76 d5 2e bc 9a a6 b0 3c ba a1 2b 3d
       -0.0427693 -0.01067101 0.021563817 0.04190228
000320 48 c7 b2 3c e7 64 75 3b 55 74 85 3c cc 53 40 3d
       0.02182354 0.0037444176 0.016290823 0.046954915
000330 1f dd 08 bd 65 4f 22 bc fc b5 df bc d0 3f 8e bd
       -0.033414003 -0.009906624 -0.027308457 -0.06945765
000340 be 12 9a bd 02 99 91 bc 23 0d 4d 3d cc 15 e2 3b
       -0.07523106 -0.017773155 0.050061356 0.006899571
000350 14 c7 90 bd a8 8c 86 bc d3 64 f4 3c 42 ca 17 bd
       -0.07069221 -0.016424492 0.029833233 -0.037058122
000360 38 74 21 bb 30 eb 81 ba 52 0a 96 3b 08 6d 43 3c
       -0.0024635922 -0.000991201 0.004578867 0.011927851
000370 95 82 52 3c ee ea 01 bd 29 b7 4a bd 76 27 0f 3c
       0.012848516 -0.031718187 -0.04949108 0.008737436
000380 3a 9a 0a bd a0 d1 06 bc e0 0f aa 3d 81 07 44 bc
       -0.03383849 -0.008228689 0.08303809 -0.01196468
000390 b9 2a 73 3d 29 af 35 3b e7 73 81 3c af 15 ca 3c
       0.059366915 0.0027722812 0.015802337 0.024668543
0003a0 08 3f a7 bc 98 2d 93 3c 95 41 17 bc 82 e5 4a 3d
       -0.020415798 0.017966077 -0.009231945 0.049535282
0003b0 44 aa 64 3c c4 05 f4 3b 9c c1 88 ba 6f 24 cb 3c
       0.01395661 0.0074469764 -0.0010433677 0.024797646
0003c0 3a d0 1f bc 2a f5 f2 3c df 06 25 3d 3c 8f cd 3c
       -0.009754235 0.029657919 0.040289756 0.025092714
0003d0 c0 1e 1d 3d 9e 58 07 bd 65 a7 be 3c ee 6c 65 3c
       0.038359404 -0.033043496 0.02327318 0.014003022
0003e0 a5 28 58 3d e4 7f 59 3d b3 14 66 3c e0 b6 c4 ba
       0.052773137 0.05310048 0.014043021 -0.0015008114
0003f0 b4 27 13 bc 58 bd f0 bc b0 d3 49 ba 7e 48 93 bd
       -0.008981634 -0.029387161 -0.00076990854 -0.07191561
