data/gpt2-small/das_simple_train_ADJ_layer8.npy (npy, 3200 bytes, 1 tensors)

array f4 [768]
000000 74 3f 50 bd 0f 3c 03 3d 17 36 86 3c c4 af e1 3b
       -0.050841764 0.0320397 0.016383214 0.006887408
000010 f2 ba 99 bd 7f 5f b2 3b be fd ca bc e4 e7 a2 bd
       -0.0750636 0.005443513 -0.024779197 -0.07954386
000020 59 bd 18 bd 40 73 3c 3d 6f 8e 80 3d be 58 36 3c
       -0.03728995 0.04600835 0.06277167 0.011129556
000030 e4 fe be 3b 07 c1 41 bc dc 53 07 bd f8 dc 3a bd
       0.005828725 -0.011825806 -0.03303896 -0.04562089
000040 03 cc 7a 3c 20 20 03 bb c2 20 33 bd 06 61 97 3c
       0.015307429 -0.0020008162 -0.043732412 0.018478882
000050 04 ed 4b 3d 4b 00 5c bd 84 99 c5 bd a6 fd 9c 3b
       0.049786583 -0.053711217 -0.096484214 0.0047909794
000060 0e 53 eb 3c 60 bd 26 3b 89 32 0c bd 6a 6b be 3d
       0.028726127 0.0025442466 -0.03422788 0.09297831
000070 05 b6 92 3c 74 4f 2d 3d 74 c7 fe 3c 92 fe b8 bc
       0.01790906 0.0423121 0.031100966 -0.022582326
000080 68 d0 85 3b 3b 54 96 3c ed c7 af 3d 28 79 86 3d
       0.004083682 0.018350711 0.08583055 0.065660775
000090 8d a0 b0 bc af fa 8f 3d 88 4e 16 3c 48 7a 09 bd
       -0.021560932 0.07030236 0.009173997 -0.033563882
0000a0 29 17 e8 3c 36 ab e2 bc 8e d1 14 bc c5 66 2d 3d
       0.028331356 -0.02766953 -0.009083165 0.042334337
0000b0 cc f7 1c bc 6d b8 0f bd b7 9a 02 bd ca 16 ad bc
       -0.009580564 -0.03508799 -0.03188583 -0.02112903
0000c0 82 9e ee 3c f7 b4 28 3d ca c5 73 bc d1 45 35 bd
       0.029128317 0.041188207 -0.0148787 -0.044256035
0000d0 c4 8a f9 3b 2f 67 32 3d e4 7e 17 bc 94 5c b6 3c
       0.007615419 0.043555435 -0.009246562 0.022260942
0000e0 f6 86 e1 bc 48 87 e8 3c 86 39 31 3c 74 66 90 3c
       -0.027530175 0.02838482 0.010816937 0.017626978
0000f0 42 ed a9 bc 77 45 e4 3c 7e 46 78 3c 3d 38 0f bd
       -0.020743016 0.027865155 0.015153525 -0.034965742
000100 05 b5 a9 bd b6 1b 8b 3b 48 df 36 bb 8e 38 c6 3c
       -0.0828648 0.0042452468 -0.0027904082 0.02419689
000110 64 c3 5d 3d 91 c8 8c 3c 42 4b b9 3c 86 08 78 3c
       0.054141417 0.017185481 0.022618894 0.015138751
000120 0a 0f 0e bc 29 17 08 bd 90 04 4b bc ac 5e de bc
       -0.008670578 -0.033225212 -0.0123912245 -0.027144752
000130 50 1c 7c bd 56 fd 4d 3d 0c 4f 59 3c d6 de 99 3c
       -0.06155044 0.050290428 0.013263475 0.018783014
000140 3e d8 9a bc 6e 32 2e bc 06 e6 9c 3c b1 46 1a bd
       -0.01890194 -0.010632141 0.019152652 -0.037665073
000150 76 70 23 bd e8 f1 8d 3c 40 1b c5 39 23 8f 86 bd
       -0.039902173 0.017327264 0.0003759507 -0.0657027
000160 62 32 b1 bc ef ac 2c 3c 16 1a f0 3c 4a ce 95 3c
       -0.02163047 0.010539277 0.029309314 0.018286843
000170 90 b5 66 bb f5 ea e1 bc 9d e6 90 3c f3 15 27 3d
       -0.0035203435 -0.027577857 0.01768809 0.040792417
000180 60 77 39 3d 52 59 80 3c 40 0a c4 3a 4e eb db bb
       0.04527986 0.015667591 0.0014956668 -0.0067114
000190 8a ec 49 3c 2c c1 8c bd c4 07 42 3d 39 c8 2f 3c
       0.012324462 -0.06872782 0.047370687 0.010728889
0001a0 9c b8 25 3d e7 7d ad bc 8a d3 ed bc 4a 01 55 3c
       0.04045926 -0.021178199 -0.029031534 0.013000796
0001b0 60 f9 a1 39 02 cf 04 3d a4 ad b1 bb 10 79 4c bc
       0.00030894112 0.03242398 -0.005422311 -0.012480035
0001c0 53 41 5d bc 86 5b 2c 3d 52 39 b9 3d 24 90 77 bd
       -0.013504344 0.04207947 0.09044136 -0.060440198
0001d0 ca 39 4a 3d a0 07 b0 bd a0 00 93 3a 26 6c 72 bb
       0.04937152 -0.08595204 0.0011215396 -0.003699073
0001e0 d2 1c 7f bd 3a 7e 51 3c a2 02 a8 bd a9 73 44 3d
       -0.062283345 0.012786442 -0.08203627 0.047961865
0001f0 28 ae 5c bc ba 9c d1 bc 1c 97 5c 3c 91 cc c9 bc
       -0.013469256 -0.025587428 0.013463762 -0.024633678
000200 ac fd f1 bb 65 00 28 bd f8 d4 91 3d e4 26 f4 bb
       -0.0073849764 -0.041016 0.07120699 -0.007450925
000210 b0 f4 35 3d 06 51 3a 3c 25 9c 08 bd 12 9c 40 3d
       0.044422805 0.011371857 -0.033352036 0.04702384
000220 94 f5 8c bd f0 52 21 bb de 62 ae bc 2a 01 1c 3d
       -0.06882778 -0.0024616085 -0.021287378 0.038087048
000230 ce 6c 6d 3d 74 45 0e 3c 8d 3e bd bc 94 18 e9 bb
       0.057965092 0.008683551 -0.023101116 -0.0071135256
000240 ca f9 ec bc 0d af c8 bc 7b be 1d 3c 9b 94 19 3d
       -0.028927702 -0.024497533 0.009627934 0.037495237
000250 3e f3 94 3c a2 c1 de 3c ad fd 53 3c 8c e5 c7 b9
       0.018182393 0.02719194 0.012938899 -0.00038127264
000260 76 6e c6 ba 14 53 bd 3c 31 fc f6 bb ce 83 23 3c
       -0.0015139121 0.023110904 -0.007537388 0.009980155
000270 16 01 2b 3d 6a 71 05 3c c0 ff 3c 3d c9 c3 26 3d
       0.041749083 0.008144716 0.04614234 0.04071406
000280 21 0d 3e 3d b1 a3 8a 3d 40 c3 67 bd dc 57 5e 3d
       0.04639924 0.06769503 -0.05658269 0.054283008
000290 58 52 71 3b 5c 49 b3 bb 67 57 87 bc 92 61 17 bd
       0.0036822762 -0.0054713916 -0.016521169 -0.036958285
0002a0 5d 35 ee bb 1b af 56 bc dd 8c a2 3d 0e 2d 5b 3c
       -0.007269545 -0.013103272 0.07937024 0.013377441
0002b0 90 72 de 3c 4f f8 d6 3c 78 53 f5 bb c7 1c 50 3d
       0.027154237 0.02624145 -0.007486757 0.050808694
0002c0 e3 4a e4 bc 5c db d7 bc 7a 8c 0a 3d dc dd ee bc
       -0.02786774 -0.026349716 0.033825375 -0.029158525
0002d0 f4 0e 05 bd e4 ad be 3b e8 cc e8 3b 93 15 68 bd
       -0.032484964 0.005819069 0.007104505 -0.0566612
0002e0 b1 8f f5 3b 12 c2 e7 3b b8 96 fd bc 58 00 c4 3b
       0.007493936 0.0070726955 -0.030955657 0.0059814863
0002f0 f3 bd 07 3c 8c ef 10 bd 90 2e 53 3b bc 3c 9e 3c
       0.0082850335 -0.0353847 0.0032223798 0.01931607
000300 e1 2b fd 3c 14 7c 93 3c e7 a9 8f 3c be ff 0a 3d
       0.030904712 0.018003501 0.01753707 0.0339353
000310 bf af 12 bc bb d4 93 bc 50 59 b6 3c 60 de 04 3c
       -0.008953034 -0.018045774 0.022259384 0.008109659
000320 49 be 37 3d 82 b3 25 3d 70 70 f2 3c ea eb 63 3d
       0.044859204 0.040454395 0.02959463 0.055644907
000330 c7 5c f7 bc 4d 64 54 bc 18 b5 f7 bc 1c 32 cd 3c
       -0.030195607 -0.012963367 -0.03023772 0.025048308
000340 b9 42 84 bd a0 96 17 3a 00 4e 3a 38 02 6e 63 3c
       -0.06458039 0.0005782638 4.44185e-05 0.013881208
000350 ee de 7c bd 18 6d e6 bc 5b a4 34 3c 04 76 17 bd
       -0.06173604 -0.028128192 0.0110255135 -0.036977783
000360 76 d0 60 bc 33 78 cf 3c 40 e4 d0 3c fc e2 b8 bb
       -0.013721576 0.02532587 0.025499463 -0.005642293
000370 6c 37 56 bc 20 a3 56 bd 18 28 96 bd ee 2e 2c 3c
       -0.013074737 -0.052401662 -0.07331866 0.010509236
000380 75 b8 04 bc 80 8c 36 ba 1c e7 0e 3d 9f be f4 bc
       -0.008100619 -0.0006963685 0.03488837 -0.029876051
000390 75 27 01 3d 9b b1 b3 3c 75 35 36 bc 8c 46 86 3d
       0.03153177 0.021935275 -0.011121144 0.065564245
0003a0 47 95 f4 bb c4 33 42 bc 60 fc f0 3c 4a 3d 93 3d
       -0.0074640843 -0.011853162 0.029417217 0.07189424
0003b0 b7 fa 9f 3c 04 78 a8 3c 4b c4 ce 3a 46 10 9c 3d
       0.01952873 0.02056504 0.0015775053 0.076202914
0003c0 58 4a de bc 5b a8 08 3d 5b 21 fe 3c 92 6c ec 3b
       -0.02713506 0.03336368 0.031021765 0.007215091
0003d0 10 a0 76 3c a0 22 1f bb 29 e2 87 3d 20 83 f9 b9
       0.01505281 -0.0024282113 0.066349335 -0.00047590677
0003e0 e0 1b 0c 3d 0f ab 6c 3b 3b 82 9d 3c 28 6f d5 3a
       0.03420627 0.00361127 0.019227138 0.0016283737
0003f0 ea b6 6e 3c ca bd 27 bd 29 7a be bc 20 82 e4 ba
       0.014569977 -0.04095248 -0.02325161 -0.00174338
